homework01/lstm_model.pth (torch, 575225 bytes, 6 tensors)

embed.weight f4 [44, 128]
1.6846418 0.05972448 -0.64373225 0.7405675 -1.1845732 1.2519897 0.9405578 -0.77818066
-1.240535 0.08196253 0.060820542 -0.21986379 1.6319726 -1.3742232 -1.8337982 0.6793298
0.21973804 1.1958544 -0.71956444 0.5972668 0.059096437 -0.59534127 1.6694933 0.02203797
-0.8787974 1.1385928 -2.31364 -1.2888747 0.04932924 0.61682683 -1.1929705 -0.1425278
0.7487325 0.8718537 -0.5501342 0.48730737 -0.24963783 -1.5099082 0.8158234 1.3323768
-0.30931923 -1.5115963 -1.8109028 1.9726846 0.0047515053 0.6084145 -1.418433 -0.53258026
-0.94472414 -1.0927418 0.9771904 -0.23914553 -0.14229812 -1.4739848 -0.3000842 0.699072
-0.7417777 -2.0082867 -0.4242313 0.05046244 0.26156443 0.32010832 0.26401034 1.5175236
0.1611931 -2.443755 1.2606615 -1.8783327 0.8970056 1.2688212 -0.17752288 0.04434879
-1.3984996 1.5738012 0.7748601 -0.919979 -0.05110261 -0.6432288 -1.4794356 -1.0526117
0.3343023 -0.8398091 0.92823225 -0.13796249 0.117180765 -1.8251666 0.29895929 0.6625666
0.20968539 1.2479181 -1.6167852 -1.296509 1.0334845 -1.8283734 0.8011509 0.20024861
1.9376614 -0.43589467 -0.43378833 -1.071543 0.13568974 -1.531494 -4.240446 0.912611
-0.60361737 -0.53682727 0.5637702 -0.26660472 1.3794868 -1.796312 -0.7456844 0.7138827
-0.16573791 -0.00014892028 -0.5423175 -1.5801051 -0.9793778 0.10368627 -0.81037897 0.07419404
-0.124595016 -0.11252455 0.8656646 0.18106116 0.14778367 1.5097209 0.9398911 0.43271753
0.2022142 0.26403677 -1.2234381 1.0918447 1.5691153 0.40806234 -1.3666298 0.003819295
-1.6334648 -0.17752731 1.6336268 -0.42519867 -0.8634061 0.0910822 0.4939687 0.91429484
-0.7619412 0.88838154 -1.1717373 -0.8388138 -0.19642669 0.53815866 -0.6000117 -0.004923638
0.6508403 -0.9646276 -0.051719896 0.33299953 0.27136436 0.1887637 -0.90269524 2.2856429
-0.91230935 -0.4470604 -1.452662 0.7848698 0.27606446 0.022023527 0.9330452 0.042099196
0.05189661 1.6532525 -0.59262985 1.0308406 0.3270106 0.4546257 -0.27633375 0.65950716
-0.98010796 0.0076443525 0.06348117 0.49507248 1.728144 1.3818598 0.80334383 -0.22951032
-0.769733 -2.2213178 -0.40606454 0.32156515 -2.165381 0.60268843 -0.028645273 0.99998194
0.7865094 -0.3678728 -0.4325047 -1.8236339 -0.15299414 2.5417368 -1.4079187 -0.14521207
0.4557588 0.6050235 -0.4974447 0.82121295 1.3023205 0.01919825 1.2141501 0.87117
-0.8039256 0.45673722 -2.9468465 1.4397053 1.7777691 -1.3131914 -0.7452222 0.6387697
1.583978 -0.40822577 -0.54542667 0.034208223 0.6620902 -0.45875257 0.98469275 0.48002452
1.2155464 0.07215974 -1.2911401 -0.42658013 -0.025487307 1.3372076 -1.1821276 -0.33412763
0.31746125 -0.20077157 0.43755284 0.14399618 -1.4253166 0.014809574 1.5668348 -0.09713765
1.4487398 -0.5486091 -0.2550146 0.5355868 1.2590414 0.38049245 1.4158448 0.27482942
1.0923657 -0.78190863 1.3704855 0.86645204 1.090435 -0.30961698 0.9657074 0.8647361
00000000: 58a2 d73f a8a1 743d a3cb 24bf d595 3d3f
00000010: 18a0 97bf 3341 a03f 65c8 703f d936 47bf
00000020: dac9 9ebf f9db a73d f61e 793d f923 61be
00000030: 7ae4 d03f 8ce6 afbf e6b9 eabf 8fe8 2d3f
00000040: 0203 613e c211 993f 6035 38bf 7ae6 183f
00000050: 1b0f 723d 4968 18bf f5b1 d53f f988 b43c
00000060: def8 60bf 69bd 913f ae12 14c0 d9f9 a4bf
00000070: 750d 4a3d 5de8 1d3f 42b3 98bf cff2 11be
00000080: efac 3f3f ce31 5f3f 98d5 0cbf 5a80 f93e
00000090: 0fa1 7fbe ac44 c1bf cdd9 503f 538b aa3f
000000a0: 175f 9ebe fd7b c1bf aacb e7bf ee80 fc3f
000000b0: 84b2 9b3b 0dc1 1b3f 368f b5bf 2e57 08bf
000000c0: 71d9 71bf f7de 8bbf 2629 7a3f 91e2 74be
000000d0: 99b6 11be 89ab bcbf a3a4 99be 62f6 323f
000000e0: 25e5 3dbf c587 00c0 d834 d9be b4b1 4e3d
000000f0: c6eb 853e 3de5 a33e 5d2c 873e 373e c23f
00000100: ce0f 253e 7b66 1cc0 5b5d a13f 356d f0bf
00000110: 29a2 653f bc68 a23f 8fc8 35be 14a7 353d
00000120: 0902 b3bf 5172 c93f 3b5d 463f be83 6bbf
00000130: f850 51bd a5aa 24bf 255e bdbf fbbb 86bf
00000140: ac29 ab3e bbfd 56bf a1a0 6d3f 0a46 0dbe
00000150: 78fc ef3d 0f9f e9bf 3111 993e f79d 293f
00000160: c4b7 563e c8bb 9f3f d1f2 cebf 02f4 a5bf
00000170: 3849 843f 2408 eabf 3a18 4d3f f90d 4d3e
00000180: 4a05 f83f 962d dfbe 8119 debe 5228 89bf
00000190: 40f2 0a3e ff07 c4bf bcb1 87c0 e0a0 693f
000001a0: ab86 1abf 836d 09bf 3e53 103f 6a80 88be
000001b0: 0693 b03f 8ded e5bf 2ce5 3ebf 04c1 363f
000001c0: 33b7 29be 7c27 1cb9 52d5 0abf e240 cabf
000001d0: 81b8 7abf 7859 d43d ff74 4fbf 0bf3 973d
000001e0: ac2b ffbd 4573 e6bd 329c 5d3f 1968 393e
000001f0: 9a54 173e 893e c13f b49c 703f 278d dd3e
00000200: 3d11 4f3e d42f 873e 9f99 9cbf 91c1 8b3f
00000210: c5d8 c83f 8ced d03e baed aebf 234d 7a3b
00000220: 6015 d1bf b8c9 35be af1a d13f a4b3 d9be
00000230: 2f08 5dbf 4e89 ba3d 77e9 fc3e 3a0f 6a3f
00000240: 940e 43bf f96c 633f 7dfb 95bf 80bc 56bf
00000250: 1424 49be c4c4 093f 5e9a 19bf 7856 a1bb
00000260: 789d 263f d6f1 76bf 3ed8 53bd ea7e aa3e
00000270: 45f0 8a3e 454b 413e 0917 67bf f947 1240
00000280: 1b8d 69bf 1ae5 e4be d4f0 b9bf 3aed 483f
00000290: 5258 8d3e af6a b43c 0ddc 6e3f 3570 2c3d
000002a0: 8a91 543d c79d d33f 97b6 17bf 96f2 833f
000002b0: ef6d a73e b3c4 e83e 9e7b 8dbe 76d5 283f
000002c0: 5be8 7abf 7a7d fa3b 6a02 823d 247a fd3e
000002d0: d333 dd3f c8e0 b03f f1a7 4d3f c104 6bbe
000002e0: 390d 45bf 122a 0ec0 b1e7 cfbe 30a4 a43e
000002f0: 9a95 0ac0 ca49 1a3f 7ea9 eabc d1fe 7f3f
00000300: ae58 493f d359 bcbe 4271 ddbe d66c e9bf
00000310: 7faa 1cbe d1ab 2240 ae36 b4bf 79b2 14be
00000320: 3859 e93e d2e2 1a3f 12b1 febe 033b 523f
00000330: 70b2 a63f a645 9d3c 4569 9b3f ff04 5f3f
00000340: 11ce 4dbf 76d9 e93e 2299 3cc0 4348 b83f
00000350: f08d e33f a816 a8bf e2c6 3ebf 6986 233f
00000360: cbbf ca3f f802 d1be 15a1 0bbf ec1d 0c3d
00000370: be7e 293f 9ee1 eabe d314 7c3f c6c5 f53e
00000380: 0697 9b3f 7cc8 933d 1444 a5bf b668 dabe
00000390: c2ca d0bc 9e29 ab3f f54f 97bf c712 abbe
000003a0: 488a a23e 1097 4dbe ed06 e03e bc73 133e
000003b0: c670 b6bf dba3 723c 0b8e c83f 1bf0 c6bd
000003c0: 4e70 b93f a571 0cbf 4691 82be 371c 093f
000003d0: 4528 a13f e8cf c23e 673a b53f 71b6 8c3e
000003e0: a4d2 8b3f 2a2b 48bf 126c af3f cdcf 5d3f
000003f0: 6093 8b3f 1e86 9ebe 9a38 773f 585f 5d3f

W_x.weight f4 [512, 128]
0.0038739666 -0.21977347 -0.085629076 0.060122184 -0.31798616 0.08278222 -0.19371262 -0.11658935
0.2723544 -0.10027497 -0.08831654 0.20603211 0.09236355 -0.0651987 -0.11196804 0.011607756
0.03199069 0.08974825 0.17954169 0.1427364 0.15506002 0.43312034 -0.00037259923 -0.18172066
0.09249477 -0.10586323 -0.16331509 0.025185654 0.102573924 0.21142374 0.14152588 -0.046837132
0.40921986 0.18333767 -0.2882193 0.24183667 0.045574524 -0.10185625 0.2541639 0.20520052
0.07974677 0.05932 -0.06078863 -0.074404 0.39909524 0.13206634 -0.02156503 0.07931903
-0.301139 -0.39702675 0.09799877 0.24720824 0.0223501 -0.123674266 -0.122718275 0.0240553
0.48248687 -0.026224082 -0.011475683 -0.19727731 -0.21197465 -0.16169769 0.25830883 0.13738269
-0.072954215 0.13083157 0.121605285 -0.22220233 -0.11871435 0.1736734 -0.08046942 0.109923325
0.051252324 0.109038964 0.10033642 0.084499255 -0.012224651 -0.24658725 -0.21746227 -0.35592353
0.01279728 -0.094408885 -0.12233201 -0.37417746 -0.2184266 0.18102814 -0.10561185 -0.09047659
0.37388405 -0.06291853 -0.21109067 0.030344835 -0.02960876 -0.076864265 0.036550283 0.11076415
-0.05539078 0.21391122 0.23321632 -0.12369843 -0.114286244 -0.12083773 0.018371984 0.15787897
0.011535744 -0.03994209 0.050915387 -0.12021062 0.070718154 -0.05208529 0.10089449 0.033868797
0.029498452 -0.11254606 0.15627281 0.2696358 -0.03137603 0.0054010237 0.002270244 0.10168783
0.037041195 0.0029070124 0.020220911 0.25804868 -0.17116788 -0.0977388 -0.055895172 -0.09250923
0.21378869 0.18216829 -0.044654123 0.0019229632 0.15801945 -0.03332046 0.21113901 -0.09736839
-0.05681697 -0.0043131514 -0.13978359 -0.09433688 0.06457386 -0.10827824 0.015115372 -0.026384206
0.10591644 0.11801384 -0.08094914 -0.019555813 0.2043561 0.041430566 -0.03030113 0.098238856
0.16097403 0.13689753 -0.019453995 -0.03228012 0.09008928 -0.009766522 0.030120822 0.0812519
0.02287479 0.12666896 -0.017830454 0.10235444 -0.03002643 0.056479387 -0.114050515 0.31563395
0.13355854 -0.047019195 -0.21042885 0.060332645 -0.033804774 -0.09730683 0.07892943 -0.13132025
0.11216894 -0.07190679 -0.2583275 0.25309905 0.07272037 0.1061958 -0.049592778 -0.019118933
-0.02015277 0.09972628 -0.014510667 -0.070795245 0.12810123 -0.002534767 -0.05953058 0.119930364
0.06775997 -0.117264934 0.08174601 -0.2054203 -0.016711267 0.2683149 0.06076055 0.07601475
-0.07635118 -0.043503735 -0.05371611 -0.035385124 -0.0126486635 -0.12335519 -0.030687502 0.048949983
-0.004008548 -0.06820859 0.039756756 -0.06601327 0.04800352 -0.09752561 0.050318908 -0.11487921
-0.1984976 -0.3097147 -0.0053844773 0.20165354 0.2272695 -0.030452281 -0.060908638 0.06299589
0.06380832 -0.033730336 -0.06785701 -0.071739025 -0.1394209 -0.020301064 -0.062126793 0.08457707
-0.028521203 -0.018501887 0.009411044 -0.10216382 0.12684828 -0.20908032 -0.06863502 0.07357339
-0.018814329 -0.10639513 0.06349372 -0.18861307 -0.29692516 0.09490452 -0.2500753 -0.102491744
0.05916417 0.14853644 -0.0032896367 -0.07010812 -0.111071736 0.30461544 0.017590312 0.021413714
00000000: 60e2 7d3b 4c0c 61be 4c5e afbd ae42 763d
00000010: 15cf a2be b989 a93d 9a5c 46be 66c6 eebd
00000020: 0972 8b3e f75c cdbd 4ddf b4bd 15fa 523e
00000030: 1a29 bd3d e586 85bd 804f e5bd 752e 3e3c
00000040: ab08 033d eecd b73d c7d9 373e 7e29 123e
00000050: 0ec8 1e3e f3c1 dd3e 6c59 c3b9 fb14 3abe
00000060: e66d bd3d d2ce d8bd 123c 27be 2552 ce3c
00000070: 4712 d23d 777f 583e 29ec 103e 4bd8 3fbd
00000080: 4485 d13e dfbc 3b3e 7b91 93be 08a4 773e
00000090: 5aac 3a3d 029a d0bd c521 823e 1620 523e
000000a0: 4652 a33d 87f9 723d 80fd 78bd 2061 98bd
000000b0: 3656 cc3e 663c 073e 25a9 b0bc 0472 a23d
000000c0: e42e 9abe 1747 cbbe 94b3 c83d 2824 7d3e
000000d0: 8f17 b73c ef48 fdbd b853 fbbd 9f0f c53c
000000e0: 8508 f73e e3d3 d6bc 8104 3cbc 1003 4abe
000000f0: e20f 59be 1494 25be 0e41 843e 0cae 0c3e
00000100: 0569 95bd b6f8 053e 310c f93d 0289 63be
00000110: 8220 f3bd 71d7 313e 27cd a4bd 7b1f e13d
00000120: f5ed 513d d24f df3d 2e7d cd3d f20d ad3d
00000130: e749 48bc 5e81 7cbe 6eae 5ebe 9c3b b6be
00000140: afab 513c 7259 c1bd 3489 fabd 3094 bfbe
00000150: 39ab 5fbe 715f 393e 074b d8bd ca4b b9bd
00000160: bb6d bf3e 6edb 80bd 2728 58be bb95 f83c
00000170: 128e f2bc 036b 9dbd c0b5 153d 51d8 e23d
00000180: 71e1 62bd 8b0b 5b3e 42d0 6e3e 9a55 fdbd
00000190: e80e eabd c679 f7bd d880 963c 06ab 213e
000001a0: 6b00 3d3c 519a 23bd a78c 503d fc30 f6bd
000001b0: aed4 903d 6357 55bd c5a1 ce3d 02ba 0a3d
000001c0: bda6 f13c 8c7e e6bd fb05 203e b40d 8a3e
000001d0: 2784 00bd 12fb b03b 60c8 143b b641 d03d
000001e0: 82b8 173d 9383 3e3b 53a6 a53c f51e 843e
000001f0: a246 2fbe 482b c8bd 56f2 64bd 7b75 bdbd
00000200: 6ceb 5a3e 538a 3a3e 3ee7 36bd f00b fc3a
00000210: dacf 213e 097b 08bd d334 583e 1469 c7bd
00000220: e9b8 68bd 5655 8dbb 6e23 0fbe b233 c1bd
00000230: 4d3f 843d fbc0 ddbd 77a6 773c b123 d8bc
00000240: b8ea d83d 3db1 f13d aac8 a5bd 8333 a0bc
00000250: ba42 513e 19b3 293d 133a f8bc 7431 c93d
00000260: 60d6 243e de2e 0c3e fc5d 9fbc 2938 04bd
00000270: ba80 b83d c303 20bc f1bf f63c 6567 a63d
00000280: e963 bb3c 82b5 013e 2c11 92bc 349f d13d
00000290: fdf9 f5bc ee56 673d 5193 e9bd c69a a13e
000002a0: 92c3 083e 3397 40bd a97a 57be 5d1f 773d
000002b0: e076 0abd ce48 c7bd c1a5 a13d d178 06be
000002c0: d4b8 e53d de43 93bd 8143 84be 3396 813e
000002d0: 6bee 943d 2f7d d93d cc21 4bbd 4f9f 9cbc
000002e0: 6c17 a5bc 4b3d cc3d 26be 6dbc 19fd 90bd
000002f0: f82c 033e 551e 26bb 56d6 73bd 0d9e f53d
00000300: bdc5 8a3d 9928 f0bd 746a a73d b359 52be
00000310: 11e6 88bc 9260 893e 0ee0 783d 9fad 9b3d
00000320: 025e 9cbd f930 32bd 6c05 5cbd feef 10bd
00000330: 573c 4fbc a5a1 fcbd 5b64 fbbc c77f 483d
00000340: 235a 83bb f2b0 8bbd fbd7 223d f731 87bd
00000350: 579f 443d 82bb c7bd 331b 4e3d cb45 ebbd
00000360: f442 4bbe ed92 9ebe 4570 b0bb 447e 4e3e
00000370: 56b9 683e 1077 f9bc 567b 79bd fd03 813d
00000380: f0ad 823d d228 0abd 9ef8 8abd e9eb 92bd
00000390: 5ac4 0ebe 6b4e a6bc aa78 7ebd be36 ad3d
000003a0: 4ca5 e9bc 4591 97bc c830 1a3c 443b d1bd
000003b0: 84e4 013e 2719 56be 8490 8cbd a5ad 963d
000003c0: 8220 9abc b1e5 d9bd ff08 823d c923 41be
000003d0: 9306 98be 4d5d c23d df09 80be 31e7 d1bd
000003e0: 2156 723d f019 183e f296 57bb d994 8fbd
000003f0: 9479 e3bd 8ef6 9b3e 8f19 903c d06b af3c

W_x.bias f4 [512]
0.27234668 0.23551041 0.2065767 0.20923856 0.17468569 0.27212477 0.17375495 0.22496527
0.03203013 0.18155877 0.17618091 0.16741191 0.35943997 0.19993179 0.092486836 0.1927719
0.08642456 0.2505995 0.24861714 0.29876918 0.05313866 0.123484075 0.26824617 0.13601907
0.07090554 0.22117585 0.2543908 0.13096854 0.11682051 0.122934565 0.233912 0.25605392
0.19214912 0.26160932 0.2277087 0.15976588 0.17587651 0.26400733 0.24818297 0.19054502
0.10532652 0.14534803 0.13821477 0.17426543 0.06737421 0.09530323 0.13718282 0.071547925
0.13637656 0.24739881 0.07883267 0.2641016 0.06996768 0.16204388 0.15396592 0.20793094
0.17554545 0.2632512 -0.017410528 0.14487289 0.17292064 0.022473231 0.02567224 0.18922535
0.0328265 0.18486123 0.36033475 -0.049489375 0.20065193 0.098564945 0.15644367 0.20266533
0.0034359747 0.15877292 -0.005282827 0.2219899 0.24600501 0.1007667 0.13814029 0.13765712
0.046414718 0.08686594 0.23663625 0.06573428 0.09467992 0.13476716 0.08223033 0.17024015
0.046714246 0.28984302 0.050364647 0.22415756 0.19930466 0.13559346 0.26028726 0.21196379
0.10996284 0.12396327 0.14036545 0.15767628 0.22115433 0.14804448 0.05114918 0.09666164
0.13868676 0.07839059 0.1617394 0.19064103 0.1634632 0.14251591 0.057622496 0.13653143
0.07290919 0.16991787 0.22231326 0.21984443 0.21286833 0.19490194 0.26636118 0.28764847
0.16089866 0.23825163 0.13143454 0.065713644 0.10665858 0.17147867 0.26364645 0.1613587
0.16507725 -0.085625425 -0.0066296663 0.13420658 0.07501948 0.050409008 0.08476279 -0.10121804
0.0008960665 -0.05328468 -0.07033878 -0.055379543 0.012293737 0.009487727 0.11261484 0.102479056
-0.020909518 -0.07069248 -0.08300165 0.041180857 0.05888137 -0.14996095 -0.14286192 -0.09092641
-0.07751636 -0.108295456 -0.07932291 -0.056256678 0.05802983 0.10319712 -0.25966537 0.101642534
0.11892009 0.08791611 -0.036919437 0.025357626 -0.106733866 -0.13837653 -0.076723516 -0.023627851
-0.038205627 0.039829668 0.05924837 0.065411225 0.057853024 -0.107893355 0.1440802 -0.0036361543
-0.0051394333 -0.043636564 0.04637805 0.10711823 0.109520435 0.010814392 0.08060471 -0.039461024
0.20994307 -0.10495735 0.09933554 0.027685858 -0.07510447 0.0963963 0.20267351 0.21410118
0.0001245449 0.01743399 -0.050586846 0.09030824 0.012600159 0.048495464 -0.012725067 -0.0049972157
-0.0038513462 -0.03154791 0.071854316 -0.08853428 0.028957346 -0.0013819415 0.072416954 0.101569295
0.058180075 0.023993723 0.09231436 0.10704877 0.18002017 0.08435396 0.10949386 -0.081196606
-0.016574835 0.03380362 -0.11414742 0.1027059 -0.007832074 0.035478547 0.106196985 0.03712198
0.09502011 0.1161409 0.14290257 0.07632628 -0.052020594 -0.10783407 0.096338056 0.05522953
-0.034437504 -0.0010918553 0.07617422 0.12573884 -0.027140195 0.062497012 -0.03457226 0.053605672
-0.035177223 0.007473469 0.098466806 0.10438467 -0.020499418 0.06540121 0.0143636735 0.10691276
-0.06940286 0.06495918 0.05545037 0.16907243 0.10534748 0.025576496 -0.037145738 0.07473875
00000000: 0671 8b3e a429 713e d888 533e a242 563e
00000010: cee0 323e f053 8b3e d1ec 313e 4c5d 663e
00000020: 0732 033d 8bea 393e c568 343e 076e 2b3e
00000030: 8408 b83e ebba 4c3e bd69 bd3d ff65 453e
00000040: 5cff b03d 944e 803e 7e95 7e3e 46f8 983e
00000050: eca7 593d 38e5 fc3d 9057 893e 9548 0b3e
00000060: ec36 913d ec7b 623e 833f 823e 9e1c 063e
00000070: 973f ef3d 1ec5 fb3d a186 6f3e 8019 833e
00000080: bdc2 443e a8f1 853e 782c 693e ab99 233e
00000090: f918 343e f82b 873e ad23 7e3e 3c1e 433e
000000a0: 6eb5 d73d 1dd6 143e 2c88 0d3e a372 323e
000000b0: 7dfb 893d 572e c33d a779 0c3e b887 923d
000000c0: 4ca6 0b3e 1d56 7d3e 0673 a13d 5338 873e
000000d0: 374b 8f3d d5ee 253e 3ea9 1d3e d9eb 543e
000000e0: 30c2 333e dcc8 863e 86a0 8ebc 8f59 143e
000000f0: 1c12 313e c819 b83c 974e d23c 4ac4 413e
00000100: 1475 063d 434c 3d3e cc7d b83e 5fb5 4abd
00000110: b377 4d3e 6bdc c93d c532 203e 8087 4f3e
00000120: 172e 613b 5e95 223e 911b adbb 5251 633e
00000130: bde8 7b3e c65e ce3d a674 0d3e fdf5 0c3e
00000140: 5c1d 3e3d c5e6 b13d c650 723e b29f 863d
00000150: 8ce7 c13d 6700 0a3e 6068 a83d 6f53 2e3e
00000160: 7057 3f3d 4e66 943e 294b 4e3d 8f89 653e
00000170: 8516 4c3e 03d9 0a3e 5f44 853e 090d 593e
00000180: 3334 e13d 74e0 fd3d f6bb 0f3e e475 213e
00000190: 4876 623e f998 173e cd81 513d 8af6 c53d
000001a0: e703 0e3e 3f8b a03d 039f 253e 6737 433e
000001b0: e662 273e b1ef 113e 9105 6c3d e5ce 0b3e
000001c0: 6a51 953d f3fe 2d3e 16a6 633e e61e 613e
000001d0: 28fa 593e 6094 473e 7e60 883e a946 933e
000001e0: 9ec2 243e 3cf8 733e c796 063e e094 863d
000001f0: d06f da3d 1b98 2f3e abfc 863e 373b 253e
00000200: 030a 293e 625c afbd ac3d d9bb 736d 093e
00000210: d0a3 993d ad79 4e3d 1d98 ad3d 674b cfbd
00000220: 01e6 6a3a 0941 5abd c70d 90bd a9d5 62bd
00000230: ac6b 493c 6972 1b3c 9ca2 e63d 8ae0 d13d
00000240: 704a abbc 38c7 90bd c5fc a9bd 42ad 283d
00000250: 972d 713d 5d8f 19be 654a 12be a037 babd
00000260: e6c0 9ebd 02ca ddbd 0d74 a2bd 676d 66bd
00000270: b0b0 6d3d 0359 d33d dcf2 84be f629 d03d
00000280: 608c f33d 5d0d b43d d638 17bd ccba cf3c
00000290: 4997 dabd 94b2 0dbe 3821 9dbd 328f c1bc
000002a0: 817d 1cbd 6f24 233d 6bae 723d 52f6 853d
000002b0: 4bf7 6c3d 31f7 dcbd c389 133e 8c4c 6ebb
000002c0: b168 a8bb 41bc 32bd e9f6 3d3d cd60 db3d
000002d0: 404c e03d d92e 313c 1514 a53d e2a1 21bd
000002e0: 51fb 563e e1f3 d6bd 6e70 cb3d 74cd e23c
000002f0: 5fd0 99bd 6c6b c53d a589 4f3e 573d 5b3e
00000300: 4498 0239 bad1 8e3c 2734 4fbd 87f3 b83d
00000310: e670 4e3c 2ea3 463d cd7c 50bc afbf a3bb
00000320: de66 7cbb 6238 01bd 5b28 933d 7651 b5bd
00000330: f537 ed3c 4322 b5ba 574f 943d 9003 d03d
00000340: 3b4e 6e3d 7c8e c43c 500f bd3d 633c db3d
00000350: 3557 383e c5c1 ac3d 513e e03d 684a a6bd
00000360: f3c7 87bc aa75 0a3d 1fc6 e9bd 7957 d23d
00000370: 1952 00bc f451 113d ce7d d93d 380d 183d
00000380: e799 c23d 48db ed3d 0d55 123e f450 9c3d
00000390: 8c13 55bd 1cd8 dcbd e34c c53d 5c38 623d
000003a0: 570e 0dbd 961c 8fba 3b01 9c3d afc1 003e
000003b0: 1d55 debc defc 7f3d a49b 0dbd 9f91 5b3d
000003c0: fe15 10bd 00e4 f43b f7a8 c93d a1c7 d53d
000003d0: 65ee a7bc 12f1 853d 9d55 6b3c 14f5 da3d
000003e0: 1623 8ebd 5209 853d ed1f 633d 5321 2d3e
000003f0: 6bc0 d73d cd85 d13c 2126 18bd a110 993d

W_h.weight f4 [512, 128]
0.28848052 -0.46851417 -0.38860005 -0.1092969 -0.067592025 0.106065474 -0.04307925 -0.38917857
-0.26889557 -0.0052057346 -0.17377363 0.47082928 -0.11468419 0.56678706 0.23271963 0.004560703
0.037192363 -0.042173084 0.06422769 -0.3298908 -0.07178994 -0.19158027 -0.28816032 -0.5662351
-0.32084814 0.17035949 -0.5655915 -0.31629375 0.32647315 0.31880897 0.37539935 -0.5938811
0.11218318 -0.0011497387 -0.11084489 0.23316689 -0.3398592 0.11269582 -0.22247764 0.046776384
-0.050757073 0.030480409 -0.32248968 -0.4814554 0.11792042 -0.2630531 -0.3226308 -0.033744127
-0.58730876 0.2584017 0.25118688 0.043526024 -0.19260497 -0.6115224 0.12365992 0.19640587
-0.09682014 0.29280388 -0.040436298 0.031219853 -0.10010784 0.2125784 -0.06887487 0.28978202
0.16979073 0.39848447 -0.26601171 0.20202993 0.13784748 -0.17337228 0.24449296 0.18748067
0.12970486 0.18045117 -0.27100286 0.3095645 0.22224408 0.3346936 0.45821553 0.032884557
0.2160382 0.027257467 -0.12078634 -0.00940187 -0.3144488 0.26992717 0.08577797 -0.12649079
-0.116155595 -0.13599518 -0.18389489 -0.1032283 0.040680714 0.35592067 -0.1178446 -0.28844917
-0.20175605 -0.22942398 0.06796678 0.164629 0.08993582 -0.23493746 -0.03798947 -0.2008603
0.16558678 0.23304589 0.22680874 0.012814675 0.11588118 -0.026980717 0.26081502 0.11282686
-0.18744306 0.29830533 -0.11973971 0.10324332 0.074231625 0.16262679 0.27548155 0.15964705
-0.38788268 0.12757021 -0.0127531225 -0.11969708 0.031855706 0.24080904 0.01815514 -0.21082428
0.36489454 0.002684721 0.1622998 0.2898318 -0.34983668 0.10207851 0.089822434 0.057042133
0.33787128 -0.21226007 0.28159395 0.17935091 -0.8065548 0.16437688 -0.016932096 0.13063274
-0.25912803 -0.055992555 -0.10679794 0.15630285 0.0626334 0.088558316 0.06857563 -0.5115581
-0.33412907 0.41652188 -0.25933474 0.088662565 0.32536525 -0.13504982 0.3920336 0.025773935
-0.22517316 0.18703225 -0.02162325 -0.16461349 -0.27871203 -0.120609984 0.08656359 -0.034116868
0.14472869 0.6786017 -0.17587425 -0.0044011134 -0.38375425 -0.20483433 -0.7277284 -0.025158308
0.46881405 0.41344103 0.24864252 -0.047950875 -0.0050927163 0.69211614 0.17834519 0.108827055
-0.03838368 0.6152313 -0.19966783 -0.25085872 -0.55795676 0.16590632 0.09094002 0.0013851054
0.33636102 -0.041496035 0.34829345 0.19496398 -0.02516525 0.10472144 0.42634013 0.14754821
0.0404031 -0.0653951 0.08753466 -0.030017128 0.24293949 0.18204169 -0.15223317 0.06645739
-0.28689212 -0.23968472 0.052937042 0.21062098 -0.2600221 0.21221986 -0.20069191 -0.21375057
-0.18606202 0.0857545 -0.27244362 0.09642217 -0.25896752 -0.08380099 -0.1031572 0.26559842
-0.1466294 0.11896048 -0.026789436 0.27240485 0.14536694 0.38398746 -0.025876168 -0.40228465
-0.7289466 0.13608375 0.095668204 0.26364097 -0.086791284 0.21180803 -0.363348 0.35597706
0.042610586 0.015725456 -0.17130932 -0.0076930006 -0.07022089 -0.083326906 -0.23617066 -0.33360955
0.07071524 0.019865286 0.43614104 0.010820177 0.2980426 0.32674047 -0.13771123 -0.123633355
00000000: b8b3 933e 17e1 efbe 96f6 c6be 0ed7 dfbd
00000010: b06d 8abd db38 d93d de73 30bd 6a42 c7be
00000020: aeac 89be de94 aabb b7f1 31be 8910 f13e
00000030: 8bdf eabd f518 113f 0e4e 6e3e f371 953b
00000040: 0557 183d afbd 2cbd cf89 833d 72e7 a8be
00000050: 9b06 93bd 9e2d 44be c089 93be c9f4 10bf
00000060: 3546 a4be b872 2e3e 9bca 10bf 41f1 a1be
00000070: 7d27 a73e ee3a a33e 5834 c03e 9708 18bf
00000080: 4cc0 e53d d4b2 96ba a502 e3bd 4dc3 6e3e
00000090: 0602 aebe 11cd e63d 2ed1 63be 9898 3f3d
000000a0: a6e6 4fbd 0db2 f93c 5e1d a5be 5281 f6be
000000b0: 4380 f13d e5ae 86be dd2f a5be 4837 0abd
000000c0: de59 16bf 3a4d 843e 919b 803e 5848 323d
000000d0: 3d3a 45be bb8c 1cbf 6a41 fd3d 9f1e 493e
000000e0: a349 c6bd 64ea 953e 88a0 25bd c7c0 ff3c
000000f0: 5705 cdbd 27ae 593e 450e 8dbd 4f5e 943e
00000100: 9fdd 2d3e 2806 cc3e b032 88be efe0 4e3e
00000110: e427 0d3e 8188 31be 5d5c 7a3e effa 3f3e
00000120: 5ad1 043e 31c8 383e e3c0 8abe 3d7f 9e3e
00000130: f493 633e f65c ab3e 3a9b ea3e f5b1 063d
00000140: 1e39 5d3e 0d4b df3c d45e f7bd 4d0a 1abc
00000150: 6fff a0be e533 8a3e 5cac af3d cd86 01be
00000160: fce2 edbd 5242 0bbe f14e 3cbe 5c69 d3bd
00000170: d2a0 263d 3c3b b63e 8258 f1bd 9caf 93be
00000180: 2399 4ebe 1fee 6abe 2b32 8b3d 8194 283e
00000190: 4530 b83d 7293 70be d99a 1bbd 53ae 4dbe
000001a0: 958f 293e 95a3 6e3e 8d40 683e a5f4 513c
000001b0: 1d53 ed3d aa06 ddbc 8c89 853e c511 e73d
000001c0: 13f1 3fbe 7abb 983e 183a f5bd 3c71 d33d
000001d0: c006 983d a387 263e eb0b 8d3e 847a 233e
000001e0: 8f98 c6be c4a1 023e 79f2 50bc be23 f5bd
000001f0: 217b 023d a596 763e 17ba 943c 52e2 57be
00000200: 75d3 ba3e 25f2 2f3b eb31 263e d564 943e
00000210: cb1d b3be 8a0e d13d d3f4 b73d 03a5 693d
00000220: 77fd ac3e b45a 59be 152d 903e c4a7 373e
00000230: 607a 4ebf 6a52 283e 2eb5 8abc 97c4 053e
00000240: 6eac 84be 7358 65bd e1b8 dabd db0d 203e
00000250: f145 803d 105e b53d 6171 8c3d 79f5 02bf
00000260: f712 abbe 5b42 d53e 86c7 84be b894 b53d
00000270: 4696 a63e 804a 0abe a1b8 c83e dc23 d33c
00000280: cb93 66be 6285 3f3e 3e23 b1bc 7090 28be
00000290: 58b3 8ebe 5e02 f7bd 4048 b13d 21be 0bbd
000002a0: c233 143e d7b8 2d3f 6118 34be 3737 90bb
000002b0: 707b c4be 17c0 51be 694c 3abf cc18 cebc
000002c0: 6508 f03e 8bae d33e 259c 7e3e 2368 44bd
000002d0: cde0 a6bb 862e 313f 1fa0 363e b8e0 de3d
000002e0: 3538 1dbd cc7f 1d3f b975 4cbe 8e70 80be
000002f0: 41d6 0ebf 59e3 293e c33e ba3d 6d8c b53a
00000300: 8337 ac3e bff7 29bd 8553 b23e a3a4 473e
00000310: 5b27 cebc 3278 d63d 4149 da3e e116 173e
00000320: b97d 253d deed 85bd 5f45 b33d 7be6 f5bc
00000330: 21c5 783e 2369 3a3e 03e3 1bbe d01a 883d
00000340: 86e3 92be e96f 75be 83d4 583d 07ad 573e
00000350: 9e21 85be 2a50 593e 2e82 4dbe 6ee1 5abe
00000360: 0b87 3ebe 0ea0 af3d bb7d 8bbe fd78 c53d
00000370: 6497 84be da9f abbd 1544 d3bd 84fc 873e
00000380: 0426 16be 8da1 f33d 8575 dbbc a678 8b3e
00000390: 12db 143e 019a c43e 42fa d3bc 41f8 cdbe
000003a0: 3f9c 3abf 8a59 0b3e b1ed c33d f3fb 863e
000003b0: a1bf b1bd 34e4 583e c008 babe a042 b63e
000003c0: 7088 2e3d acd2 803c b66b 2fbe 9115 fcbb
000003d0: f8cf 8fbd 4ca7 aabd b9d6 71be dfce aabe
000003e0: 27d3 903d 86bc a23c e14d df3e 1d47 313c
000003f0: 0a99 983e 874a a73e 2c04 0dbe 7c33 fdbd

fc.weight f4 [44, 128]
-0.33791488 0.0016912671 -0.10010139 -0.50832385 0.45540082 0.32430378 -0.19318573 -0.14402032
-0.25668398 0.065167315 -0.7135038 -0.2644657 0.65046513 -0.25650936 -0.596517 0.46476215
0.49836177 -0.14793421 -0.35269356 -0.62673324 -0.53221864 0.36302045 0.08007221 0.37127244
0.45671913 0.42611802 0.25956964 0.27055496 0.59645 -0.41014126 -0.27723446 -0.7123284
-0.5101042 -0.46525523 0.37264138 0.37685868 -0.2567854 0.26879466 -0.017134808 -0.23130381
0.5491945 -0.50117475 0.41870463 0.10784438 0.051800348 -0.23098521 0.29671955 -0.66635096
0.5376317 -0.5099645 -0.6390282 0.039513145 0.46157813 -0.0067727366 -0.43481642 -0.48235127
-0.42618185 -0.16358146 0.5321273 0.5643384 0.26625356 -0.38099736 -0.42917427 -0.58267695
0.11809089 -0.5452367 -0.07853779 -0.47873968 0.35287622 -0.39065197 0.2935975 -0.5601207
-0.31975934 -0.21899182 -0.48695484 -0.22737812 -0.37327555 -0.7349326 -0.32371336 0.5044086
0.11251772 0.39028758 -0.5689563 -0.30600333 0.6218909 -0.21314259 -0.5982535 0.23762968
0.051846426 -0.4613632 0.24895404 -0.2080811 0.15783286 -0.4454148 0.22680496 -0.25710642
-0.45006394 -0.4382726 -0.44697553 -0.4948867 -0.63662416 0.47923043 0.4947174 0.63574976
0.27057037 0.4340578 0.18808806 -0.23972888 0.08276406 -0.46104014 0.06398241 0.06729139
1.0288838 -0.5527983 0.50174505 0.43692017 0.3075196 -0.038261626 -0.035943124 0.5419237
-0.22775804 0.35397527 0.056575168 -0.34309843 -0.436938 -0.36068955 -0.46231887 0.48187795
-0.027778486 0.27234516 -0.37375006 -0.010004718 -0.19118315 -0.14560139 0.02936711 -0.3254498
0.02528898 0.27021596 0.23450981 -0.33663136 -0.0021026947 -0.31853083 -0.079979144 0.037536055
0.35666686 0.27638206 -0.3757631 0.05285118 -0.0872893 -0.113554075 0.18905587 0.36473453
0.46998185 0.3160655 0.25868317 -0.21782808 0.14915715 -0.11554526 -0.32069874 0.083845235
0.02988095 0.10474427 0.36695313 0.14567287 -0.3029497 0.10655404 0.39235845 0.09718952
0.39692256 -0.27097204 0.1929512 0.29454374 0.22766985 -0.4732253 0.47048846 -0.005372761
-0.011328526 0.13654588 -0.16303143 -0.17316467 0.38620028 -0.3550095 -0.35723227 -0.3710295
0.09925129 -0.41878307 -0.05918009 1.1884507 0.54256934 0.013983013 -0.23543802 -0.20577954
-0.28316852 -0.011337415 -0.16205199 -0.2848855 -0.13741346 -0.8125407 -0.25589997 0.057256594
-0.3863997 -0.2969808 -5.7085526e-05 0.24123885 0.28693458 -0.12993485 0.080779456 0.60347134
-0.09076301 -0.09890459 -0.17555492 -0.0018243865 -0.082699135 -0.10749986 -0.28535664 -0.023748863
0.38529268 -0.06599522 0.32496276 0.0035291775 0.2663425 0.09078494 0.2690536 0.0035306967
-0.9528792 -0.30056202 0.2418358 -0.20053662 0.18278375 -0.271614 0.5124982 -0.06702144
0.33556142 -0.26595894 -0.32102615 -0.411948 0.3656084 -0.21419188 0.33645892 -0.1508112
0.29101476 -0.16698569 0.06674706 0.09490516 0.077602595 0.21204637 0.28934583 0.02998727
-0.46423423 -0.14460446 0.18859474 -0.3936884 -0.3168094 -0.3729694 0.24157135 0.5833648
00000000: 2e03 adbe 82ad dd3a f501 cdbd 8321 02bf
00000010: 4c2a e93e 250b a63e 7bd2 45be 107a 13be
00000020: 156c 83be 7176 853d 2fa8 36bf 0c68 87be
00000030: e284 263f 3255 83be 57b5 18bf 4ef5 ed3e
00000040: 4629 ff3e 117c 17be 4094 b4be 9771 20bf
00000050: 7b3f 08bf d1dd b93e e6fc a33d 6c17 be3e
00000060: 17d7 e93e 242c da3e 50e6 843e 2e86 8a3e
00000070: f2b0 183f 09fe d1be adf1 8dbe 275b 36bf
00000080: 3096 02bf ef35 eebe daca be3e 9ff3 c03e
00000090: 6079 83be 749f 893e 4c5e 8cbc e8da 6cbe
000000a0: 0398 0c3f fd4c 00bf 7460 d63e 84dd dc3d
000000b0: 9a2c 543d 6387 6cbe a0eb 973e fa95 2abf
000000c0: 3ba2 093f 098d 02bf 5a97 23bf 89d8 213d
000000d0: f853 ec3e d5ed ddbb 42a0 debe bff6 f6be
000000e0: 8234 dabe e681 27be 7f39 083f 7b78 103f
000000f0: 6352 883e 1612 c3be bbbc dbbe 512a 15bf
00000100: a3d9 f13d a294 0bbf 6cd8 a0bd 5e1d f5be
00000110: 31ac b43e 8903 c8be 6952 963e 1264 0fbf
00000120: 7fb7 a3be 643f 60be 2552 f9be cfd5 68be
00000130: f91d bfbe 8b24 3cbf c2bd a5be ec20 013f
00000140: b16f e63d c6d3 c73e 1fa7 11bf 78ac 9cbe
00000150: 3e34 1f3f 0d42 5abe 2427 19bf 3255 733e
00000160: eb5c 543d cc37 ecbe cfed 7e3e 3613 55be
00000170: f09e 213e 690d e4be 8f3f 683e 74a3 83be
00000180: c86e e6be 4465 e0be fad9 e4be ca61 fdbe
00000190: cdf9 22bf b15d f53e 994b fd3e 7fc0 223f
000001a0: 3388 8a3e d33c de3e 289a 403e 7d7b 75be
000001b0: 3480 a93d 740d ecbe 3609 833d 11d0 893d
000001c0: 77b2 833f 3084 0dbf 5d72 003f 00b4 df3e
000001d0: 3673 9d3e 39b8 1cbd 1939 13bd 83bb 0a3f
000001e0: 6739 69be 3f3c b53e 5dbb 673d 99aa afbe
000001f0: 56b6 dfbe 4dac b8be 0fb5 ecbe b5b8 f63e
00000200: b58f e3bc d370 8b3e 2b5c bfbe d4ea 23bc
00000210: 84c5 43be 8818 15be 4b93 f03c 5ba1 a6be
00000220: d62a cf3c bf59 8a3e 5723 703e f25a acbe
00000230: 5dcd 09bb 7916 a3be 1bcc a3bd 68bf 193d
00000240: 0a9d b63e f381 8d3e 0564 c0be 7b7a 583d
00000250: bcc4 b2bd 0a8f e8bd dd97 413e 7cbe ba3e
00000260: 76a1 f03e 56d3 a13e 1f72 843e 530e 5fbe
00000270: a7bc 183e fea2 ecbd a032 a4be 0db7 ab3d
00000280: e5c8 f43c 2a84 d63d 48e1 bb3e 452b 153e
00000290: 391c 9bbe 0139 da3d 35e3 c83e 4d0b c73d
000002a0: 6f39 cb3e d9bc 8abe 0095 453e 70ce 963e
000002b0: 4922 693e 964a f2be dde3 f03e fc0d b0bb
000002c0: 489b 39bc afd2 0b3e b6f1 26be 1452 31be
000002d0: 0bbc c53e cec3 b5be 26e7 b6be 94f7 bdbe
000002e0: 4344 cb3d bc6a d6be d266 72bd 271f 983f
000002f0: d3e5 0a3f 0219 653c aa16 71be dfb7 52be
00000300: 77fb 90be 91c0 39bc f5f0 25be 83dc 91be
00000310: 1db6 0cbe ab02 50bf 5205 83be e485 6a3d
00000320: 2ed6 c5be de0d 98be 1e6f 6fb8 5107 773e
00000330: 17e9 923e a40d 05be b36f a53d 197d 1a3f
00000340: f5e1 b9bd 7d8e cabd abc4 33be 4120 efba
00000350: 2a5e a9bd e328 dcbd 441a 92be fa8c c2bc
00000360: 1545 c53e 8028 87bd 8561 a63e c649 673b
00000370: 0b5e 883e 74ed b93d 65c1 893e 4363 673b
00000380: e4ef 73bf 44e3 99be cea3 773e 7959 4dbe
00000390: aa2b 3b3e fd10 8bbe 1533 033f 8942 89bd
000003a0: b5ce ab3e c52b 88be 8a5d a4be d9ea d2be
000003b0: 0631 bb3e 1e55 5bbe 5844 ac3e 406e 1abe
000003c0: e3ff 943e 4cfe 2abe afb2 883d a35d c23d
000003d0: 1cee 9e3d af22 593e 2325 943e dda7 f53c
000003e0: 1cb0 edbe 3113 14be fb1e 413e 8791 c9be
000003f0: d734 a2be d8f5 bebe 7b5e 773e 6557 153f

fc.bias f4 [44]
-0.36313874 -0.08517137 -0.3152105 0.026853789 0.116401315 0.089078344 -0.06007767 0.022945203
-0.029402649 0.032123253 -0.047451068 0.05977535 -0.10932581 0.041868582 0.08460971 0.1013375
0.08740208 0.037550643 -0.07512348 -0.16056857 -0.024572907 -0.12605366 -0.039148808 -0.15039317
-0.109513484 0.10148656 0.042287353 0.074261405 -0.0035532601 0.024963263 0.021410432 -0.2325345
-0.058299538 -0.12784955 0.05126218 -0.045836177 -0.18234035 -0.36897016 -0.1382158 -0.0857504
-0.22601798 -0.2630753 -0.1449893 -0.11146363
00000000: 52ed b9be 546e aebd 4563 a1be 7afc db3c
00000010: d063 ee3d b56e b63d 0114 76bd 94f7 bb3c
00000020: d3dd f0bc ac93 033d 0d5c 42bd ffd6 743d
00000030: 36e6 dfbd 647e 2b3d db47 ad3d 098a cf3d
00000040: ddff b23d b4ce 193d 57da 99bd 166c 24be
00000050: 1f4d c9bc 3614 01be 805a 20bd ab00 1abe
00000060: 9b48 e0bd 30d8 cf3d 8135 2d3d 5d16 983d
00000070: d0dd 68bb c27f cc3c ee64 af3c 861d 6ebe
00000080: 7fcb 6ebd feea 02be 4bf8 513d b7be 3bbd
00000090: 6eb7 3abe a8e9 bcbe 7188 0dbe e89d afbd
000000a0: 4271 67be ceb1 86be 1378 14be 0b47 e4bd
