homework01/lstm_model.pth (torch, 575225 bytes, 6 tensors)

embed.weight f4 [44, 128]
00000000: b77e 94bf da68 c53d e2a8 dbbe 9b33 ac3e
00000010: 98fa d5bf 181f 853f c5b4 8bbf a3fb 19bf
00000020: c74f 0fbd 3cfa 2340 2784 2ebf 377e 19bf
00000030: e9df c43f 7ca5 933f 23d4 033f fc81 8b3f
00000040: d319 ac3f e9d3 553e 99fe edbe afae 26bf
00000050: 5937 aabf 71c8 be3f e2c4 103e 64c1 c6be
00000060: 6cd9 f9be 9dca f83f 0ca8 213e 4798 333e
00000070: eb4a edbf 6ac0 c33e a1f8 573d 9879 8abf
00000080: d71e 24bf a3ef 2bbf 754b babf 7662 acbf
00000090: c1dc 17bf 0c23 d13e 0340 583e 382e 2e3f
000000a0: abff ee3e 95f0 12c0 7ac5 d73d df64 b23e
000000b0: 6137 593f aaf3 84bf 219d f8be 6c56 b3be
000000c0: 9029 76be aadb bebf 88d2 023f 7192 6dbe
000000d0: 61a9 3340 9a0f 543f e479 a6bd 33e1 9ebf
000000e0: 56f1 dcbe e353 c43f f8d9 c0bf 9c30 be3e
000000f0: d089 363f be9c 2e3f 6dca a9bf c73c 313f
00000100: 0a35 7abf 6b6d 95bf 4430 3cbe e5bf b23f
00000110: dd23 593f 6bc7 7ebf 8a4b 39be 6f4f fabf
00000120: ee79 59be e040 bb3d 2a9c 903f be07 843f
00000130: cc32 663c 0430 d03f a5a8 b7be 7730 1f3e
00000140: c783 a1be e164 4cbf 66c2 893f 45d8 0f3f
00000150: 8371 21bf 0479 133b d593 99be 0d8a f4bf
00000160: cc9c 353f 6864 1c3f d352 babf 4c6e 1bc0
00000170: d04b 34be 6c88 a73f c563 cabf f932 c7bf
00000180: 5259 a4be a45b 003d fbb3 0abf 7bf1 693f
00000190: f388 063d 1eff 7dbf 8d93 f33e 2423 3dbe
000001a0: 728b 9dbf 3bc3 febf 15ce d83e 5e12 543f
000001b0: 11fc 19be d450 75be 3f0d 083e 9b44 253e
000001c0: c659 cc3f 7e16 0fbf b1b4 2bbf 906f e5bf
000001d0: 333b a43f 44a2 02c0 dcb8 cc3f 3620 d43f
000001e0: 92bd 07bf 5851 95bf b597 6a3e afc2 0a40
000001f0: a2f6 94be 78b8 c5bf 6c51 d7bf f685 0740
00000200: 40f7 e6be d39a 0f3f 8aff 47be 5315 503f
00000210: 3f19 d6bf cea0 a5bf 5972 eb3e 3c99 8ebf
00000220: ec94 d4be 281e 613e 7218 c2be 7699 e03b
00000230: 51a9 dcbe 460c 7d3f d2d7 a9be 8b08 813f
00000240: f8a3 4bbf ca34 043f 0745 9abf 8fa5 a6bf
00000250: ccc2 90bf 875c cdbd c8a8 af3f 741d 883e
00000260: 178d 5d3f 53bc c33e 7232 5a3b 2707 0f3f
00000270: 6abf e4bc 167e 813f f96e 0ec0 061a 9e3e
00000280: e18c 53c0 f8fa b23f 5893 5b3f 463f 243f
00000290: 6a57 ea3e 3d99 e53e 312f c1bf 2e75 5e3e
000002a0: 3a13 303f 148a 863f 91af 88be e42a 493f
000002b0: 2064 42bf 7b88 b63f c2e0 463f a343 a7bf
000002c0: 7ef2 01bf db4c a2be 497e fcbe 8669 a83e
000002d0: a552 673f bd52 38be fc42 b83e eb65 c0bf
000002e0: cf0a 15be a017 803e 421e a3be 55ce 14bf
000002f0: f462 8abd d3e4 b53e c5ee 243e b8a0 81bf
00000300: 43f1 683e 9441 de3f 5fc0 803e 3848 033e
00000310: a31f 983f d44c 0e3d 29e0 6e3f 60e6 fdbf
00000320: c16d 48be 5fe4 c9bf 94ef 003f 5ad7 833f
00000330: 9af0 c3bf 477c 333f 4190 fdbd 06fa 93be
00000340: fafc 41bf bc26 d6be 1782 8abf f016 4a3f
00000350: 17a6 cc3e 00a5 753e e2e3 e9be 895e 423e
00000360: 9c10 a1bf a425 583f 34cd 443f e833 babf
00000370: 474b b33e 41e9 67bd 71be af3e 0b79 bb3e
00000380: d83e 0740 1f26 91be bc23 733d 76cb 643f
00000390: 805a 8c3f 6d0c d33f 73c5 f6bd 5d27 edbe
000003a0: ca85 463f b2b2 653d c9fc 73bf 2c24 12bf
000003b0: b74a 733f 56e0 e93e 6065 2fbf 5c37 9bbf
000003c0: 4f14 1d3f b847 0340 5be2 e0be c6e7 ef3f
000003d0: 9005 873f b77d 403e aca2 42bf b042 de3e
000003e0: 01c9 56bf d209 5e3f d17d 823f f643 28bf
000003f0: d8e9 9e3f b138 82bf 8e2a d63f 4ba8 273f
-1.160117 0.096391395 -0.42902285 0.33633122 -1.67171 1.0400114 -1.0914541 -0.6014959
-0.03498819 2.562148 -0.681704 -0.59958214 1.5380832 1.1534877 0.5149557 1.0899043
1.3445381 0.20881619 -0.46483305 -0.65110296 -1.3298141 1.490492 0.14137605 -0.3881942
-0.48798692 1.9436833 0.15786761 0.17538558 -1.8538488 0.38232738 0.052727345 -1.0818357
-0.6410956 -0.6716253 -1.4554278 -1.3467548 -0.5932122 0.4084705 0.21118169 0.68039274
0.46679434 -2.295934 0.105357125 0.34842584 0.84850127 -1.038686 -0.4855738 -0.35026872
-0.24039292 -1.4910786 0.51102495 -0.23200394 2.807213 0.82836306 -0.081287175 -1.2412475
-0.43152875 1.53381 -1.5066519 0.3714646 0.71304035 0.6820792 -1.32649 0.69233364
-0.9773718 -1.1674017 -0.18377787 1.3964812 0.8482035 -0.9952304 -0.18095222 -1.9555491
-0.21237919 0.09143233 1.1297657 1.0314863 0.014050197 1.6264653 -0.35870853 0.15545832
-0.3154585 -0.7984143 1.0762451 0.56189376 -0.6306383 0.002250255 -0.299956 -1.910463
0.7094238 0.6109071 -1.4556526 -2.428607 -0.17607045 1.3088508 -1.5811697 -1.5562431
-0.32099396 0.031337395 -0.5418088 0.91384095 0.03284545 -0.992174 0.4757351 -0.18470436
-1.230818 -1.990333 0.42344728 0.82840526 -0.15037562 -0.23956615 0.13286303 0.16139452
1.5964897 -0.55893695 -0.6707259 -1.7924671 1.2830566 -2.041154 1.5993915 1.657233
-0.53023636 -1.1665449 0.22909434 2.1681325 -0.29094416 -1.544692 -1.6821723 2.1175513
-0.45110512 0.5609562 -0.19531074 0.8128254 -1.6726454 -1.2939699 0.45985678 -1.1140513
-0.41519868 0.2198416 -0.37909275 0.0068542315 -0.43097928 0.9884685 -0.3317247 1.0080732
-0.7954707 0.5164305 -1.2052315 -1.3019274 -1.1309447 -0.10027414 1.3723383 0.2658497
0.8654341 0.38229617 0.0033294228 0.5587029 -0.027923305 1.0116603 -2.2255232 0.3087923
-3.3054736 1.398284 0.85771704 0.6415905 0.45769817 0.44843474 -1.5092527 0.21724388
0.6877934 1.0510888 -0.26696447 0.7858107 -0.7593403 1.42604 0.77686703 -1.3067516
-0.5076064 -0.3169926 -0.49315098 0.32893008 0.9036048 -0.18000312 0.35988605 -1.5031103
-0.14554904 0.25018024 -0.31859022 -0.5812734 -0.06757155 0.35526142 0.16106708 -1.0127172
0.22748284 1.7363763 0.25146767 0.12820518 1.1884655 0.034741238 0.9331079 -1.983593
-0.19573118 -1.5772818 0.5036557 1.0300095 -1.5307801 0.7011151 -0.1238103 -0.2890169
-0.75776637 -0.41826427 -1.082095 0.7894125 0.39970466 0.23988724 -0.45681673 0.18981375
-1.2583194 0.84432435 0.76875615 -1.454709 0.3501837 -0.056618933 0.34324983 0.36615786
2.1132107 -0.28349397 0.05936025 0.89372957 1.0965118 1.6488167 -0.12049379 -0.46319094
0.77547896 0.05607862 -0.95307595 -0.57086444 0.9503588 0.45678967 -0.6851406 -1.2126269
0.61359113 2.0512524 -0.43922696 1.8742607 1.0548573 0.18797956 -0.7602947 0.43410254
-0.8390046 0.86733735 1.0194646 -0.657287 1.2415113 -1.0173551 1.6731737 0.6549117

W_x.weight f4 [512, 128]
00000000: a3dd 70be bb4e ab3d 90e4 47be 0ac6 68be
00000010: ad1c 09be 00ae 083e 5a12 583e 37c7 463e
00000020: 7160 873d 7cd8 293e c950 473e 4d2b 8c3e
00000030: 75ab e8bb 2d71 aa3b 735d 893d b802 2e3d
00000040: 3d59 07be 4310 31bd 1e58 aa3d 7d2b 063d
00000050: 4fef fbbd 926b 703e e0b7 ab3c 7c3c fdbd
00000060: a1de 323e ab3b 083e d60f 723d efd8 8b3d
00000070: 4ec6 0e3e 5918 193c cd29 1cbd a57a c1bc
00000080: da4b c9be 01da ae3c 561c 473e 04fd 3f3d
00000090: 2c15 9fbd 3f95 b6bd a39c 52be 212a c9bd
000000a0: debd 8f3d 5fec 9abd baaa a23d 11a5 063e
000000b0: b450 883e 7807 32bd de52 42bd 7757 303d
000000c0: 998d 1dbe ff73 53be b82d c3bd e7d0 a23b
000000d0: 7fb4 ae3b 04f7 febd b6d9 51bd c98b 4dbd
000000e0: b9fc b3bc afdb 01be cfef 85bd c57f 023e
000000f0: ccc0 063e eadd 6f3e 65dc 26be dace 33be
00000100: 3330 32bd 9d6b e43d 9439 5b3e 6d14 6a3e
00000110: 3963 9cbd 5765 67be 67b5 25bb aee6 5fbd
00000120: 917c 73be 80d5 1137 9d17 2b3e 854d c13e
00000130: 8fb8 cb3d 581f 273e ec82 11be 22d7 643e
00000140: 195d 2dbc 647e ebbd 60df 063c a21b 9cbc
00000150: 9ca3 29bb 6bd5 f13d 9337 e73d 485a abbd
00000160: a1c6 c23d 1080 fabc f3f5 743d 7a24 bd3c
00000170: 80cd 3b3d 5e1f ae3d 4164 d93c 059e adbd
00000180: 2f2f 0bbd 609b 533d e422 28be eb10 0f3c
00000190: 2ab2 b03e f560 11bd 39ea d4bd a6ff ec3d
000001a0: 738c 37be bd43 3b3c 8dcd 80be 51a8 05be
000001b0: 3d3f a0bd 7cb9 3fbe 543e 5fbd f413 adbd
000001c0: a2e5 5fbd 60d8 e5bd 0916 7a3e 59a2 e3bb
000001d0: d40b 333e a664 88bd 1c41 96bd 8ee6 dc3c
000001e0: c56b 3ebc d7b9 75be b582 12be db1e c6bd
000001f0: e02a 923e 8542 babd 5c43 1bbe a917 9d3d
00000200: 9d81 1b3e e5b8 d23d 3834 46bc 79fa 0c3e
00000210: 20bf 8c37 cf30 b73d 01d4 1dbe 6646 d1bd
00000220: 9a2e b5bd c4f8 993d 0e18 85bd 4f6f dabd
00000230: 1b3a 473d f76c 453e fc9c bebd d2da 423e
00000240: 5294 fbba dcc3 c93e a2c4 cd3b 9376 d7bc
00000250: b07c 2ebd 5537 94bb 6cad 943d 7154 c6bd
00000260: b699 fe3d 345b a83d 2bcc b3bd b992 7e3e
00000270: b8f2 123d 5648 9ebd ce4b 9abe e3c6 8a3d
00000280: e016 10be a4df 0dbe 5b0e 0cbe fa8d febd
00000290: da91 1fbc 0990 bdbd ef17 093c 382d 6d3d
000002a0: 5bf0 4c3d 138e 1fba f261 373c 43da 623c
000002b0: c320 02be 6d70 2f3e c9ad 7cbd 88bc febd
000002c0: e9ed 383b dd5c cd3d 40bb 81ba a8bf 893d
000002d0: 9c39 d13d d8b2 453d 9f96 c73b 52fb 07be
000002e0: 868e 5abd 0856 133e df0f 353d 8037 593d
000002f0: d5bc ed3d 5bf8 f83d d35a a2bd 6496 013b
00000300: 778f 82bd 3fb3 16be b6bc 0b3e 39cc 84bd
00000310: 34a5 a63b fc1b 84be 3ff3 153d ba45 05be
00000320: 438b 0fbe 54f4 ae39 c725 98bd 2687 243c
00000330: cab9 5fbd 95ff f8bd f1df a3bd 276b c73d
00000340: ad2e 2abd 20a8 eebd 9802 4d3e 45f1 2bbe
00000350: 002e 963d 418e 94bd a8c9 063e 79e3 063e
00000360: 7378 743c 61f9 d73d 5c33 85bd 6c49 043c
00000370: 7e11 a23c ba91 15be 453c e93c aa2a 333d
00000380: c515 d439 a3c5 2d3e 6c75 02bd 2aa6 0dbe
00000390: a29f 14be 26f5 743c b54c 343d 17ee 2abe
000003a0: 7606 d13d 12b2 2fbe c6f6 853c 99e9 a93d
000003b0: fef6 10be aca8 f7bd db26 e3bd 2c5a 13bc
000003c0: 85cb 29bd a9af babc 164e e4bc 911d 963c
000003d0: fccd 06be abfb 90bd 1488 853d 054c 173e
000003e0: d3c7 c53c 0d66 a6be fafb a9bd 478e 3c3e
000003f0: 27ae 1bbe d477 8dbc 0646 98bd 007c 40bd
-0.23522048 0.08364626 -0.19520783 -0.22731796 -0.13389845 0.13347626 0.2110075 0.19411932
0.066101916 0.16586488 0.19464411 0.27376786 -0.0071005174 0.00520148 0.06707277 0.04248306
-0.13217635 -0.0432284 0.08317588 0.032756317 -0.12301504 0.23478535 0.020961702 -0.12365052
0.17467739 0.13304012 0.059097134 0.06828486 0.13942835 0.009344184 -0.0381258 -0.023618052
-0.39315683 0.021344187 0.19444403 0.046872154 -0.0776771 -0.08915185 -0.20567565 -0.098224886
0.07018636 -0.075646155 0.0794272 0.13148905 0.26624072 -0.043464154 -0.04744231 0.043052163
-0.15386046 -0.20649718 -0.095302045 0.0049687508 0.0053315754 -0.12449458 -0.051233016 -0.050182138
-0.021971093 -0.12681459 -0.065398805 0.12744053 0.13159484 0.23424497 -0.16295011 -0.17559376
-0.043502998 0.11153338 0.21408683 0.22859354 -0.07636113 -0.22597252 -0.0025285126 -0.054663353
-0.23777987 8.692383e-06 0.16708227 0.37754455 0.09947311 0.1632055 -0.14210099 0.22347692
-0.010581278 -0.114987165 0.008231968 -0.019056145 -0.0025884872 0.11808284 0.11289897 -0.08366829
0.09510542 -0.030578643 0.059804868 0.023088682 0.045850277 0.085020766 0.026537063 -0.084774055
-0.033980545 0.05166185 -0.1641956 0.008732061 0.34510928 -0.035492856 -0.10396237 0.115721986
-0.17924671 0.011429724 -0.25156823 -0.13052489 -0.07824562 -0.187231 -0.0545028 -0.084510714
-0.054662354 -0.11222911 0.24422468 -0.0069468436 0.17484981 -0.06659822 -0.073366374 0.026965406
-0.011622374 -0.23996674 -0.14307673 -0.09673854 0.28548336 -0.09094719 -0.15162414 0.076705284
0.15186162 0.10289172 -0.012097411 0.13767423 1.67783e-05 0.089448564 -0.15412904 -0.102185056
-0.08846779 0.075181514 -0.06498729 -0.10665762 0.048639398 0.19279848 -0.09307286 0.19028786
-0.0019193983 0.3940724 0.006279544 -0.026301658 -0.04259938 -0.0045231977 0.0725964 -0.09684075
0.12431662 0.082205206 -0.08779176 0.24860658 0.035876006 -0.07728641 -0.3013596 0.06776216
-0.14071226 -0.13854843 -0.13677351 -0.12429424 -0.009739364 -0.09255988 0.008367523 0.057904452
0.05003391 -0.00060865394 0.011192786 0.013845983 -0.1270781 0.17132731 -0.061689172 -0.12438303
0.0028217977 0.10027478 -0.0009897724 0.06726009 0.10216066 0.04826626 0.0060909535 -0.13279465
-0.053358577 0.14388287 0.04420459 0.053031445 0.116082825 0.12156745 -0.079274796 0.0019773478
-0.0637502 -0.14716814 0.13646206 -0.06484265 0.0050856117 -0.258026 0.03660893 -0.1301488
-0.14017968 0.00033369905 -0.074290805 0.0100419875 -0.05462054 -0.121581234 -0.08001698 0.097372346
-0.04154842 -0.11653161 0.2002052 -0.16791256 0.073329926 -0.07253695 0.13162863 0.13172711
0.014921295 0.10545612 -0.06503937 0.008074146 0.019783732 -0.14606372 0.028471122 0.04374186
0.0004045201 0.16969924 -0.031850263 -0.13832918 -0.1451402 0.014951026 0.044018466 -0.16692387
0.102063105 -0.17157772 0.016353022 0.08296508 -0.1415672 -0.120927185 -0.110913955 -0.008993667
-0.041453857 -0.02278884 -0.027869266 0.018324645 -0.13164514 -0.07079252 0.065200955 0.14775093
0.024143135 -0.32499734 -0.08300014 0.1841365 -0.15203153 -0.017269053 -0.07435231 -0.046993256

W_x.bias f4 [512]
00000000: 8bf9 333e 8014 da3d 2f8a 123e 91d7 923d
00000010: 2361 813e 278a a83d c856 9c3e 1d9d b33d
00000020: 75df dc3d 1a71 733e b874 fe3d 6e8e 893e
00000030: 37b9 823e 4cbd 403e f5f7 1d3c dd8b 08bd
00000040: 74ef 603e e25f 2a3e b72a 1d3e d707 4f3e
00000050: 3990 9d3e 3439 8c3d 608d 2d3e e053 823e
00000060: d73d 633d 2a47 443e 88c3 a137 9d4d 223d
00000070: c3fd dcbc 0b4e e33d efc6 c13c 1fe0 263e
00000080: 1337 293e 7f83 f53d 2cb0 c93d cc4a fa3d
00000090: 0dc5 8d3e 24a1 883e 4479 863d 32bb d53d
000000a0: c9f8 4c3e 482f 623e 7748 193e 07f7 2d3e
000000b0: 3ef1 dc3d dc87 173e b6cd 3d3e f837 fa3d
000000c0: a1ce 163e 9e4a a43c 5885 a83e 265c 153e
000000d0: c932 033e ef9b c43d 6767 5a3d 5bad f13d
000000e0: c727 953e ba4b 313e 7833 463e 364d fd3d
000000f0: b400 893c c770 083e 89ac df3d e000 a03e
00000100: a63f 273e a7f9 143e e522 6f3e 4586 883e
00000110: 10fa 013e 1b83 8b3d e03d 673e e021 303e
00000120: b592 843e 7dec f13d cbda 9d3d d99c 6e3e
00000130: 07c7 413d d0c1 833e 6706 593e 5416 533e
00000140: 66e5 9f3c feb5 d13b f7be 313e fe2a 8e3e
00000150: 301b 213e 2997 233d 2228 343e 3214 843e
00000160: 1c66 563e a333 813e 6e97 703e f8aa 543e
00000170: d70b ae3d ffab 143e 6259 053e 982b 6e3e
00000180: 8144 333e c219 793e 0049 c43d 4398 693e
00000190: e982 203e 45b4 873e df3a 893e f7ee 2e3e
000001a0: 067c 523e ec41 4e3e 1f6a f73d 9c0d 323e
000001b0: ed5f 733e ad61 353e 29e8 1a3d ae30 803e
000001c0: a299 1b3e 3201 183e 3f7c 4a3e 1440 743e
000001d0: c0ee 123e 92de 193e ccb8 2d3e 3b79 913e
000001e0: 24a1 873d f2b3 103e 7b29 913e e3b7 2b3e
000001f0: 57a5 443d 716f b53d 6915 723e 983b 433e
00000200: e1f3 973c 9cec da3d 0fda e53d d670 d83d
00000210: a972 c7bd 9780 f63d 3943 4d39 c95d 50bd
00000220: 3ee8 2d3e 4856 25bd 2823 603d ed53 de3c
00000230: 76c0 1bbe 911c 073e 173f ef3d 3f19 ba3d
00000240: 220a 88bd e8a2 913c dbe9 673b 4d09 b1bc
00000250: b76d 55be e413 9e3d 9bc8 b1ba a029 a03d
00000260: 7cab 833d 8ff4 abbd 80c3 57bd e044 16be
00000270: d35d ac3d 0edb 64bd a28c 0f3e be13 9b3d
00000280: d0cd 9f3d fd54 f23c 19ce c93d 2388 933b
00000290: 690f b53d 3322 2d3e e70f 5a3d 1dd5 83bc
000002a0: 49ff 923d 152b 833c 26a2 953d a26b 013d
000002b0: e240 2c3d 1fa9 123d e217 153e bd87 773d
000002c0: 2161 e63d 40c7 d8ba af96 08bc a6ad 193e
000002d0: 0902 f8bc 0def 953d b1ab 97bd 3ef7 e13c
000002e0: d95a 0dbc 7ac2 4e3e 027d d1bc b0bc b93d
000002f0: c813 433e f20a 543d a93e 853d 1392 fd3c
00000300: b1e1 83bc 56b3 cc3d 2242 533d aa99 4cbd
00000310: 8aba 14be 2567 aa3d 745c 01be 4734 a13d
00000320: bf1b fa3d 52ce 48bd 1521 e5bb 1ed8 2a3d
00000330: 7f73 ef3d 4e6b c33a cf02 d1bc ba1c 0f3e
00000340: 0264 f63d adef 233e c06a 323d 3ce3 c63d
00000350: 0dca fb3b a4fd 423d 3b9b b3bd 7ec1 763d
00000360: 5710 2c3e 0baa 68bc 9751 a73d 4803 713d
00000370: 16c4 96bd 5835 0c3e a9f6 adbd 0529 303e
00000380: 2848 bcbd 9cef 8f3c 5d5e 0e3e 3ac6 b8bd
00000390: f011 543e df3f 173e 6036 d43d a18b ce3d
000003a0: 6377 d0bd f739 10be 4247 2b3e fb7e cabc
000003b0: 8aad bb3d f554 1f3c ee96 8f3e a66e 9cbd
000003c0: c510 183d 9f41 693c 1b7b 993c 1405 a7bb
000003d0: 39da 8bbd 3e43 10be 9957 0b3e 75dd 8fbd
000003e0: 0c22 10bd 7696 6cbd 6d1d 4abd 96de 26bd
000003f0: c83a 6fbd 721b 223e cd99 743c 29d8 343d
0.17575662 0.10648441 0.14310525 0.07170022 0.25269422 0.082294755 0.3053496 0.08770201
0.107848085 0.23773614 0.12424606 0.26866478 0.25531933 0.18822211 0.009641637 -0.03333651
0.21966344 0.16638139 0.15348326 0.20217834 0.30774096 0.06846848 0.16948462 0.25454617
0.055478897 0.19167772 1.9283747e-05 0.0396248 -0.026976472 0.1109887 0.02365443 0.16296433
0.16524915 0.119879715 0.09848055 0.122212976 0.276894 0.2668544 0.06566098 0.10436095
0.20016779 0.22088349 0.1496905 0.16988765 0.10788201 0.1479792 0.18535504 0.122177064
0.1472726 0.020055111 0.32914233 0.14585933 0.12812342 0.096000545 0.05332127 0.11800643
0.2913191 0.17314044 0.19355571 0.123682424 0.016723968 0.13324271 0.1092158 0.31250668
0.16332874 0.1454836 0.23353155 0.2666494 0.12693048 0.06812116 0.22582197 0.17200422
0.2589318 0.11812685 0.07707747 0.2330202 0.047308948 0.25733805 0.21193849 0.20613986
0.019518565 0.006399869 0.17358004 0.27767175 0.15733027 0.03993908 0.17593434 0.25796658
0.20937389 0.25234708 0.23495266 0.20768344 0.08498352 0.14518736 0.13022378 0.23258817
0.17506601 0.24326232 0.09584236 0.2281199 0.15674938 0.26504722 0.26802728 0.17083345
0.20555124 0.20142335 0.12080788 0.17388004 0.23767062 0.17713042 0.03781906 0.2503714
0.15195325 0.14844206 0.19773959 0.23852569 0.14348888 0.1502631 0.16965026 0.28412804
0.06622532 0.14131144 0.2835196 0.16769366 0.048009243 0.088591464 0.2364098 0.19065702
0.018548908 0.10689661 0.11223232 0.10568397 -0.097386666 0.12036245 0.00019575366 -0.05087069
0.16983125 -0.040365487 0.054721028 0.027139628 -0.15210137 0.13194491 0.11681955 0.090868466
-0.06642558 0.017777875 0.0035387191 -0.02161088 -0.20842634 0.077186376 -0.0013563813 0.07820439
0.064291924 -0.08396255 -0.052676678 -0.14674711 0.08416333 -0.05587297 0.14018491 0.07572125
0.078029275 0.029581541 0.09853763 0.0045023127 0.0884083 0.16907577 0.053237822 -0.016092831
0.07177598 0.016011754 0.07306318 0.031596787 0.042054065 0.035805818 0.14559892 0.060432184
0.112489946 -0.0016538873 -0.008336707 0.15007648 -0.030274408 0.07320986 -0.074057944 0.027583715
-0.008627617 0.20191374 -0.025572304 0.090691924 0.19050515 0.05176825 0.06506092 0.030953443
-0.016098829 0.09995143 0.05157674 -0.049951233 -0.14524284 0.083204545 -0.12632924 0.07871299
0.122123234 -0.049024887 -0.006992469 0.04171001 0.11691951 0.0014909299 -0.025514035 0.13975802
0.12030794 0.16009398 0.043558836 0.0971131 0.0076839984 0.04760517 -0.08769842 0.060243122
0.16803108 -0.014200698 0.08169859 0.05884102 -0.07361619 0.13692224 -0.08494312 0.17203148
-0.0919345 0.01757031 0.13903184 -0.09022184 0.20709968 0.14770459 0.10361934 0.10085226
-0.10179021 -0.14084612 0.16726401 -0.024718752 0.09163959 0.009724845 0.28044838 -0.07638292
0.037125368 0.014236837 0.01873546 -0.005097041 -0.06828732 -0.14088151 0.13607635 -0.070246615
-0.03518872 -0.05776068 -0.04934447 -0.04073962 -0.058405668 0.15830782 0.014929247 0.04415146

W_h.weight f4 [512, 128]
00000000: dd53 23be 7272 fd3d d576 543e 2b6b ad3d
00000010: 4dcc 993e eecf 043f a7c3 353e a55b 0fbf
00000020: 3822 7abd 8291 bd3e 1321 ba3d 0f59 d83e
00000030: 29f4 b7bd 27d8 09bf 88d3 183e cff7 643e
00000040: fe45 e63d ba8c 813e aa3d 0dbb 5635 563c
00000050: cff8 07be de51 a7bc c302 c4bd f775 bb3a
00000060: ed3d 2d3d c686 f83d abf4 163e c179 083e
00000070: 1d7f 16bd 2561 efbe 8ea4 0dbe 4931 98be
00000080: acef 9d3e 87dd 3f3e ce99 f83d 1ac3 713d
00000090: 22b4 7dbe 1a8b 43bd ff17 f83e 8ab1 eabc
000000a0: fc83 59be c8a7 773c 4297 8b3e 0dd5 8cbc
000000b0: 9acc fe3d b211 cfbd 446a a73e badc 033e
000000c0: d5dc 01be 8f74 543d 1369 bf3e 1cf9 d8bb
000000d0: 037d fa3e 8fa5 65be aef8 bb3e 1cbf 80be
000000e0: baff d53b 4410 a13e 9246 53bf 037b c33d
000000f0: 68c9 a43d c253 c23d c73d 28be f58b afbe
00000100: 3cd0 6bbc 5a44 a03e 750f a63c 1f46 613e
00000110: d6b6 25be 99de 93be e44b 993e 04e9 963e
00000120: dd7c 2bbe 42c3 a3be 416c 32bf b2ae 8e3e
00000130: 392e 39be d047 d73e f3ff 3ebe 026a aabc
00000140: a511 693d a13b 453e 6397 163e 266a 8a3e
00000150: 7df9 263e c6a7 51be ccb5 39bc 64a0 32bf
00000160: 1a53 65be 3f1e 993e 7949 a0bc 125f a5be
00000170: 1bf3 0e3e 3012 9cbd fd1e 9d3e 4254 1fbe
00000180: f1f1 753e 5b7a 83be d7a2 9e3e aed3 003e
00000190: a70d 393e 2b10 5e3d b101 103e 5886 983d
000001a0: d7f4 e2bd 1c91 c8be 552f c23e f2b9 f3bd
000001b0: 582b 5dbe 0edb 293f 7cb2 a3bd 3c67 e8bd
000001c0: 2f5a dfbd c4c5 a13e 9b73 2abd 9f43 b33e
000001d0: 0ccf e0be 78be 803f 2c85 03bd 7d33 f9be
000001e0: c18a 6fbe 4af0 efbd 0f0a 56be 1413 28bf
000001f0: e9f6 d8bd fa63 90be a894 9dbe 879e f43d
00000200: 8609 213e 3586 693e 445a 2ebe 9dd6 e83d
00000210: a021 77bc f4cb ce3e a41c 92be 4e85 34bf
00000220: 0ed1 76bd f2ef ebbe 1346 1c3e c101 f43e
00000230: baa2 373e df38 4f3e d63d 833e 6737 b8bd
00000240: 40a3 e63e 00e9 b43d cee5 e13e b39e e43d
00000250: 63d2 5fbd 4163 523e a8fd 35bb 6978 bb3e
00000260: 42b7 163d f29c 96be 09f2 ccbd 9630 c1bc
00000270: b38f d7be 94d2 a03d d2d1 513d f359 c8be
00000280: ec91 7dbd 6bc7 cfbe c022 b3be e86c 823e
00000290: a832 16be 56b8 ffbd 3250 b93d b22b 2ebe
000002a0: a87d 4e3d 9496 283e c629 0f3d c9fa d53e
000002b0: 3862 d03e ddad 893d f226 47be c1a6 2ebe
000002c0: 23a5 7dbe 40c9 10be 0064 a83e a2ae 273d
000002d0: a76c 87bb fcab 1d3e 7bfd 85bd babb e13e
000002e0: ba41 dfbe cf4f a4be d6ed 8d3e 0e8f a53e
000002f0: 57d3 703e bc8b ff3d 4973 023e 3731 f1bd
00000300: 3935 0d3d a6a3 7a3e 2da9 85bd 732a c93e
00000310: bc2a b0be fbae c0bc 6fd7 30be 8e39 4e3d
00000320: 7283 13be c35a 173d 919b 8bbd d1de 8e3e
00000330: 870e 7cbe e700 b23c 2806 383f 66cc cb3d
00000340: 221d a13d 71d9 1f3e 13d7 3cbd bdcd 273e
00000350: 32fb 18bf d959 073f 532f d93e 47d3 0fbf
00000360: f4bf 3ebe 2a22 373f dc22 d63c 8505 7fbd
00000370: 55bd a7be e79e a4be 69c5 a73e f06e 893e
00000380: 3fd7 a13e 8a26 7dbd 35fc 653e 4e79 393e
00000390: fc8c b33d e322 ee3b 4cfc 403e 24d1 113e
000003a0: 08b9 d7be f3f6 38be 4f4b 00bd 7706 97be
000003b0: ea20 96bc 8e41 f33b c310 7c3c c4c5 00be
000003c0: 335f 40be 4919 e9bd 9dc2 6c3e 29a6 4bbd
000003d0: 884a 753c e681 723d b8ff ec3d 5b47 acbe
000003e0: 169e c4be 157c 653d 4a4b 4dbd 0257 8e3b
000003f0: 0360 083e e60f f83e aeca 7a3d 56ab 103e
-0.1594996 0.12375344 0.20748456 0.08467706 0.30038682 0.51879776 0.17750417 -0.55999213
-0.06106779 0.37025076 0.0908834 0.42255446 -0.08982117 -0.5384545 0.14924443 0.22360156
0.11243819 0.25302678 -0.0021551647 0.01307424 -0.13278507 -0.02042478 -0.09570839 0.0014302124
0.042295385 0.12135081 0.14741771 0.13327695 -0.03674232 -0.46753803 -0.13832304 -0.29725102
0.30846918 0.1873685 0.12138711 0.059023954 -0.24775746 -0.04774008 0.48455808 -0.02864911
-0.21241754 0.015115686 0.27263838 -0.017191434 0.124413684 -0.10110797 0.32698262 0.12877169
-0.12681897 0.05186897 0.37384853 -0.006621493 0.489235 -0.22426437 0.36713165 -0.25145805
0.006530729 0.31457722 -0.82529557 0.09544947 0.08046228 0.09488632 -0.16429816 -0.34286466
-0.014392909 0.31302148 0.020271042 0.21999405 -0.16183028 -0.28880766 0.29940712 0.29474652
-0.1674685 -0.31984907 -0.6969643 0.27867657 -0.18084039 0.42046976 -0.18652324 -0.020802502
0.056901593 0.19261028 0.14706187 0.2703411 0.1630611 -0.20474157 -0.011334848 -0.69775987
-0.22394982 0.29905888 -0.019566284 -0.32299095 0.13959925 -0.076206565 0.30687705 -0.15559486
0.24018075 -0.25679287 0.30983612 0.1258075 0.18071614 0.054214638 0.14063145 0.07447499
-0.11081856 -0.3917321 0.37926736 -0.11900701 -0.21598566 0.66349876 -0.079930276 -0.113478154
-0.10905873 0.31596196 -0.041614156 0.35012528 -0.43907964 1.0058126 -0.032109424 -0.48672095
-0.23392774 -0.117157534 -0.20902275 -0.6565411 -0.105939694 -0.28201276 -0.30777478 0.11944299
0.15726289 0.22805102 -0.17026621 0.11369059 -0.0150837 0.4038998 -0.28537476 -0.70515907
-0.060257964 -0.460815 0.15261106 0.47657588 0.17933169 0.20236538 0.25633115 -0.08994942
0.45046425 0.08833504 0.4412064 0.11163082 -0.054644 0.20545675 -0.00277696 0.36615303
0.036795862 -0.29416615 -0.10007102 -0.023582738 -0.4210182 0.078526646 0.05122549 -0.39131126
-0.06190674 -0.4058183 -0.3498745 0.25473714 -0.14667761 -0.12486331 0.09048499 -0.17008856
0.050412804 0.16463691 0.034951948 0.41792896 0.40699935 0.06722615 -0.1944845 -0.17055799
-0.24770026 -0.14139271 0.32888794 0.040938027 -0.0041328254 0.15397638 -0.06542488 0.44088537
-0.43604833 -0.3209214 0.27720517 0.32335705 0.2351812 0.12477824 0.1273929 -0.11776965
0.034474585 0.2447649 -0.06526408 0.392902 -0.34407604 -0.023520937 -0.17269681 0.050347857
-0.14405611 0.03695179 -0.06816781 0.2790437 -0.24614917 0.021728946 0.71884394 0.09951095
0.07866885 0.15610291 -0.04610355 0.16387077 -0.59758294 0.5287147 0.42418918 -0.5618176
-0.18627912 0.71536505 0.02613967 -0.062261123 -0.32761636 -0.32152483 0.327678 0.2684245
0.31609532 -0.06180433 0.2245949 0.1811268 0.08767125 0.0072673424 0.18846244 0.14239937
-0.42133355 -0.18062954 -0.03132182 -0.2949712 -0.018326242 0.007423586 0.015384856 -0.12575442
-0.18786316 -0.11381776 0.23121114 -0.04971901 0.014971383 0.059205912 0.11572212 -0.3364819
-0.3840186 0.056026537 -0.05012063 0.0043438682 0.13317876 0.4844963 0.061228447 0.1412786

fc.weight f4 [44, 128]
00000000: a6a4 b13d 9933 3fbf 4972 283f f037 26bf
00000010: c4ea 07be f1de 48bf b59e e8be 524e c33e
00000020: 583d 10bf 47ae b73d 825c c1be d0c3 14be
00000030: 75bd 3fbd f31f 003f 9d94 cbbe c4fe 19be
00000040: c649 3ebe 1b57 e4be e2ed 5bbb dea7 323e
00000050: cf57 f2be e27f f0be 41c3 c93d 0923 0ebf
00000060: 59b4 963e 546a a1be 1574 2ebf 2398 68be
00000070: 5b8e a33e b944 723e 2073 08bf 1787 db3e
00000080: fda9 99be 1897 193f a52a 213f 09dc ac3d
00000090: fddf 8b3e 6922 c53e fc4d 25bf 9fea 433e
000000a0: 51cf b2be 5b58 a1be 8723 e8be b660 d9be
000000b0: bb3c 003f 640b a63e 77ab a5be 1502 93be
000000c0: 94d2 283e 505c 04bf f9c3 5c3e ffe4 49bf
000000d0: 4a4d 973c 9330 e9be 8ebe 9d3e a2b1 1b3e
000000e0: a034 1f3f 3fb9 d2be bf34 193f 665a 49bf
000000f0: ab7c 4fbf c7c8 03bf 676f cfbe 4e79 f03e
00000100: de10 f4be 8aa1 943e 0984 a23e 1880 d3bc
00000110: 787b 6f3c d46f 7dbe ef08 cf3e 5f20 92be
00000120: c931 fcbe f415 a23e 0684 353f e01c 73be
00000130: 706d 183f 2508 003f 4e99 62be 3583 d9be
00000140: 01a4 cd3e bc4c e2be 2408 ad3e 0284 4d3e
00000150: 7222 003f e9c6 7b3d 1e41 c83d 9000 c53e
00000160: 0cb3 aebe 39b1 c43e d56e 303e e8d7 e63d
00000170: 1834 a4be 99ee d03e 30de 49bd 76ab 19bf
00000180: 6aa4 8ebe 7ca7 9d3e 3afd f2be 1cdf b53d
00000190: d7e5 9c3e d9c2 423e 10c6 d1be 83f6 57bf
000001a0: 4df0 ac3e bbc6 55be 1db3 ffbe d773 153f
000001b0: 6f6f ea3e 77c6 aebd 15a7 013d 1e2b 95be
000001c0: ac18 08be 811f 663e 1fd4 253e a37d 4d3e
000001d0: 2eda dcbe 6629 0dbf dd36 f3be 99ca cc3e
000001e0: 6a0b 2d3d fdb3 db3e 0323 0a3f f2b4 dc3e
000001f0: 1365 b73e e71b b2be 3bad 35bf e402 323e
00000200: 7b10 9e3d e933 b4be a902 a23e 2fde 7bbe
00000210: c5ba 903e 17fb 4f3d 86d9 b1be 0572 3cbc
00000220: cb49 d1be a630 90be 4983 3d3e 756e 9f3d
00000230: 69f5 c5be 3222 9b3e e8bd 65bf 9bb4 3dbd
00000240: cbfe a6be 3e2d ccbe 9668 b4be b8f0 95be
00000250: b314 91be 44f5 283e bf1e 5ebe 89df c0be
00000260: 3b89 4a3b 6d69 37be a6a3 a9be 79f8 69be
00000270: fd72 093f 0d7c 6a3e ee5d 11be 821a 143f
00000280: 40a3 edbe 697a e13c 415d 26be ec75 8e3e
00000290: 622c 293d ddad e0bd 005a 07bc 4d5f 86bd
000002a0: fafe b5be 4406 133d 4a3f 8c3d ff52 d7be
000002b0: 9a90 d73b 67fd 2abe e384 ecbe e89b 123e
000002c0: 8590 db3e 55ce 253b ac78 c33e 0871 c33d
000002d0: b169 5b3e 37b8 383c 6fb5 083e 2441 94bd
000002e0: f437 0b3f 9e1d 47bf 0b61 063f b206 02bf
000002f0: 3049 d3be a336 a1be 104b 66be 2864 c93e
00000300: fbd6 91be 072e bc3d 38d3 0a3f e0be d33e
00000310: db6e cbbd ef5c a93d a29d 87be 1ce3 b5be
00000320: 3e4a 483e 704e cd3e a278 7cbe 2c1a a4be
00000330: 64c7 163f 39ce d1bd 7907 99be 0453 c83d
00000340: 62a2 9a3e 2322 3abf 9a1a dc3e 1de3 a13e
00000350: 13eb 5dbe ce06 af3e 65a4 83be 97c7 5fbc
00000360: da0c 96bd 918a d5bc 7ddc bdbe 5a81 a0be
00000370: a690 ecbe eb95 b03e e4bb 88be 4eb5 973d
00000380: 64bc 253e 68d3 11be 97a8 f33d 6529 8a3e
00000390: 073e ec3d 7889 d43e c137 a9bf 905e 793d
000003a0: b18d 59be 909a 8e3e 7b11 66be e976 df3e
000003b0: 449a b4bd 9704 e6be ef97 27bd 8307 6fbe
000003c0: a4f3 72be 170a e13e e406 393e 9b40 5e3e
000003d0: 88a1 e1be 1663 703e e92d 70be 6ba9 78be
000003e0: 4e91 7cbe ebd7 8ebd 5a7c 0e3e 095d e93e
000003f0: b163 f5bc 0f09 d43c 0f6f ec3d 4e4a 7f3d
0.08673982 -0.74688107 0.65799385 -0.64929104 -0.1327315 -0.7846518 -0.45433584 0.3814569
-0.56343603 0.08968788 -0.3776589 -0.14527822 -0.04681154 0.5004875 -0.3976182 -0.15038592
-0.1858283 -0.44597706 -0.0033558537 0.17446849 -0.47332618 -0.46972567 0.09851695 -0.5552221
0.2943447 -0.31526434 -0.6814588 -0.22714286 0.31944546 0.23659028 -0.53300667 0.42876503
-0.30012503 0.59996176 0.62955695 0.08440406 0.27319327 0.38502815 -0.6457212 0.1913247
-0.34923795 -0.31512722 -0.45339605 -0.42456597 0.5009267 0.32430565 -0.3235738 -0.28712526
0.16486579 -0.5170336 0.21559133 -0.78865045 0.018469471 -0.45544872 0.30809444 0.1520448
0.62189674 -0.41156957 0.5984611 -0.7865356 -0.81049603 -0.51478237 -0.4051468 0.46967548
-0.4766912 0.29029495 0.3174136 -0.025817916 0.01461684 -0.2474969 0.40436503 -0.28540322
-0.49256733 0.31657374 0.70904577 -0.23741484 0.5954199 0.5001243 -0.22128794 -0.42482916
0.40164188 -0.4419917 0.33795273 0.20069888 0.5005256 0.061468992 0.09778045 0.38476992
-0.34120977 0.3841646 0.17229779 0.112716496 -0.32070994 0.40807036 -0.04928416 -0.60027254
-0.27859813 0.30791843 -0.47458822 0.08880445 0.30644104 0.19019641 -0.40971422 -0.8436052
0.33777085 -0.20876591 -0.4994134 0.5837988 0.45788142 -0.08533948 0.031653482 -0.29134458
-0.13290662 0.22472955 0.16194199 0.20067458 -0.43135208 -0.55141294 -0.47502795 0.3999832
0.042247213 0.42910758 0.53959674 0.431068 0.358193 -0.34786913 -0.70967454 0.17383915
0.07717987 -0.35195854 0.31642655 -0.24596475 0.28267494 0.050776567 -0.3473627 -0.011501794
-0.40876612 -0.28162116 0.18507113 0.0778474 -0.38663796 0.30299526 -0.897429 -0.046314817
-0.32616267 -0.39878267 -0.35236043 -0.29285216 -0.28336105 0.16499811 -0.21691416 -0.37670544
0.003090455 -0.1791131 -0.33132666 -0.22848691 0.53691083 0.22898884 -0.14195988 0.5785295
-0.46413612 0.02752419 -0.16246511 0.27824342 0.041302092 -0.10970662 -0.008261204 -0.06561146
-0.35546094 0.035894647 0.06848009 -0.42055508 0.006578517 -0.16698228 -0.46195135 0.14317286
0.42883697 0.0025299985 0.38178003 0.095430434 0.21427037 0.011274389 0.13350461 -0.07238987
0.5438225 -0.7777957 0.52491826 -0.50791466 -0.41266775 -0.31486997 -0.22489572 0.39334226
-0.2848433 0.091884665 0.54228544 0.41356564 -0.099332534 0.08269679 -0.26487452 -0.35524833
0.19559571 0.40098906 -0.24655393 -0.32051218 0.58897996 -0.10244412 -0.29888514 0.09781459
0.30202013 -0.7270834 0.42989045 0.31618586 -0.21671705 0.3418488 -0.2571136 -0.013658426
-0.0732667 -0.02606705 -0.37082282 -0.31348687 -0.46204108 0.34489378 -0.2670585 0.07407628
0.16185147 -0.14240801 0.1189739 0.26984707 0.11535268 0.4151113 -1.322014 0.060881197
-0.21245457 0.27852297 -0.22467606 0.4364541 -0.08818486 -0.44925377 -0.04091638 -0.23342709
-0.23725754 0.4395301 0.18069035 0.21704333 -0.4406855 0.23475298 -0.23455013 -0.24283378
-0.24664804 -0.06974777 0.13914624 0.45578793 -0.029954763 0.025883226 0.1154462 0.06232672

fc.bias f4 [44]
00000000: bd1b 42be d08b 29be bf57 aebe 4acc 1e3c
00000010: 5ac5 05bc c292 a23c 1b63 1dbe 26d3 f03c
00000020: 2865 9e3d 2dbb 703e b36f c43d 9e16 acbb
00000030: f8a8 723b 34af 4b3d d7b6 b6bc d359 f43d
00000040: 7692 5a3d 5a18 8fbd 0e29 053e 2e3f 1ebd
00000050: be0b d13c b11e d7bd 11c4 d83d 1c37 02be
00000060: 00ec 1fbd c9fe ca3d e5e2 3b3d 6a19 eb3b
00000070: ee01 ac3b 11df 9cbc 0a32 c6bd cf5b 2fbe
00000080: b89a f9bb 6df1 4abd 5019 113c e209 93bd
00000090: 82bb 9cbd bbee 44be 104b 03be 0f87 13be
000000a0: 147d 37be 3978 25be f0c3 5dbd f944 45be
-0.18955894 -0.1655724 -0.3405132 0.009692261 -0.008164728 0.01984537 -0.15369837 0.029397558
0.07734138 0.23508902 0.095916174 -0.0052517196 0.0037026983 0.049727634 -0.022303982 0.11931195
0.053362332 -0.069870666 0.13003942 -0.03863447 0.025518294 -0.10503901 0.10584272 -0.12716335
-0.039043427 0.09911878 0.04587068 0.0071746605 0.0052492535 -0.019149335 -0.09677513 -0.17124866
-0.007617321 -0.049546648 0.008856133 -0.07179619 -0.07652952 -0.19231693 -0.12821603 -0.1440699
-0.17918807 -0.16159143 -0.05414194 -0.19264592
