homework01/rnn_model.pth (torch, 181227 bytes, 7 tensors)

embed.weight f4 [44, 128]
0.68196213 -0.2835007 1.6217492 0.46978894 -0.84785104 1.3490744 0.1551323 1.9965935
-0.64663804 0.15283552 -1.4769472 0.4189807 -1.8005309 1.3841054 1.8447051 0.16416386
0.09005798 1.060466 -2.534161 0.8593135 0.3792763 1.507431 0.16664587 -0.8924997
-0.87462574 -0.013649794 1.3416275 0.20108809 0.11955637 -0.98052025 1.3038538 -1.554527
-0.5778083 0.2779808 1.8914524 0.94508594 -1.7631929 0.26905367 -0.11614869 -0.9676305
0.5158334 -0.73004115 -1.4074976 -1.3357075 -0.49547273 0.94674724 0.25254804 -1.3099729
0.7849313 0.51242274 -0.1569738 -1.2614732 -0.7973941 0.35726658 0.17733344 -1.0818822
0.068518706 -0.7982846 0.108633325 1.6242144 0.49957338 -0.083580256 1.2868174 0.12300002
-2.6973817 -2.0639167 0.658962 -0.107677236 -0.8405064 -1.5276991 -0.06427453 -0.56095576
1.1014051 -0.28832376 0.56019723 -0.48168334 -0.31105182 -1.3056512 0.19642727 0.017024847
0.64195734 1.6049427 0.93447226 0.8740245 0.4924147 1.97299 0.58886606 1.8391725
-0.5518156 -0.80136347 0.30909875 -1.060579 -0.57250786 2.431661 -1.2466621 0.2912459
0.6400157 -0.21784896 0.9113322 -0.7938993 -1.430657 -0.7827434 -1.255619 0.81576085
-0.16138597 -0.80328435 0.47647524 -0.19286664 -1.5226637 -0.32821095 -0.19080697 -0.75090414
-0.24838674 -0.25438258 1.3830123 -1.5434645 0.938108 0.57311505 0.4618171 0.62323195
0.44967386 -0.7802307 1.0576199 -0.8489933 -0.37311938 0.3647771 -1.1517476 2.080214
2.595279 -0.031523097 0.5300115 -0.34048212 0.04521051 0.27896473 -0.35164526 1.4519457
1.2481067 -0.87929064 -0.27232137 1.044152 0.23971575 -1.8199617 -0.36556172 -1.0798155
0.6182589 -1.6833549 1.1087395 -1.1565711 -0.5449319 -1.8767897 2.1788108 0.40035054
-0.6871721 1.0801904 -1.2296215 -0.7450652 -0.21180303 1.2044752 0.16910093 -0.37794077
-1.821553 0.7753229 0.6117749 0.16532597 -0.06295517 0.9827197 -0.16605628 0.29097643
1.4200616 -1.6519789 0.70015496 -1.6965895 -0.29581836 1.4088001 0.12867883 -0.3349228
-2.6327536 1.367434 0.6742894 -2.468628 0.4914224 -1.2584231 -0.77785534 1.6977557
0.12269913 -1.2239282 0.3374414 -0.06189744 -0.46787667 -0.5743914 1.8936703 -0.19070147
1.1931573 0.16189238 -1.074076 0.990863 -0.98350525 0.0021668756 -0.22251655 0.40008348
-1.345196 0.044264205 0.37785506 -0.25304693 1.1082813 0.16167259 -2.2089972 0.8715287
0.6802587 -0.7427344 -0.025099043 0.555312 0.0221698 -0.5713864 -0.4411556 0.0056622503
-0.11552012 0.69662595 0.7973249 -0.27786556 -0.1401848 -0.7094355 -0.667751 0.6476774
-0.35886994 0.6621061 -0.7200818 0.10050268 0.5121599 -0.39563918 0.63565123 -2.0324783
0.15597485 1.8040417 0.59594667 0.500091 -0.76101273 2.3821368 -1.0282987 -0.4605407
0.3910078 -0.018295452 -0.50754213 0.7582177 -1.3850724 0.7045587 -0.6284483 -1.0685691
0.039004657 -0.77527213 -1.7448124 -1.1264915 1.0831488 -0.05899294 -0.865565 0.65253055
00000000: 1295 2e3f 0127 91be 7a95 cf3f 2d88 f03e
00000010: c40c 59bf 78ae ac3f 00db 1e3e 6090 ff3f
00000020: 128a 25bf ea80 1c3e 9b0c bdbf a384 d63e
00000030: cc77 e6bf 5e2a b13f 4c1f ec3f 921a 283e
00000040: 5170 b83d 5abd 873f b22f 22c0 f8fb 5b3f
00000050: 8130 c23e 80f3 c03f 37a5 2a3e dc7a 64bf
00000060: 79e7 5fbf 63a3 5fbc 73ba ab3f 09ea 4d3e
00000070: f8d9 f43d 6003 7bbf aee4 a63f befa c6bf
00000080: 3feb 13bf 8053 8e3e 1d1b f23f 27f1 713f
00000090: 4eb0 e1bf 67c1 893e 5ddf edbd a2b6 77bf
000000a0: a80d 043f fae3 3abf e228 b4bf 77f8 aabf
000000b0: 9aae fdbe 075e 723f fa4d 813e 31ad a7bf
000000c0: 42f1 483f 232e 033f bdbd 20be f477 a1bf
000000d0: 0522 4cbf a5eb b63e e696 353e 1e7b 8abf
000000e0: 8953 8c3d 615c 4cbf 267b de3d 42e6 cf3f
000000f0: 15c8 ff3e 202c abbd 6fb6 a43f 6fe7 fb3d
00000100: e7a1 2cc0 3617 04c0 bcb1 283f e285 dcbd
00000110: 6d2b 57bf a58b c3bf 5da2 83bd cc9a 0fbf
00000120: d8fa 8c3f 2c9f 93be 1669 0f3f 339f f6be
00000130: 2f42 9fbe 941f a7bf 3b24 493e b177 8b3c
00000140: 5157 243f c36e cd3f 9339 6f3f 12c0 5f3f
00000150: c81d fc3e f08a fc3f edbf 163f 016a eb3f
00000160: ca43 0dbf 2826 4dbf 3142 9e3e 0dc1 87bf
00000170: e08f 12bf 55a0 1b40 a092 9fbf 2f1e 953e
00000180: 12d8 233f cc13 5fbe 114d 693f fc3c 4bbf
00000190: c51f b7bf df61 48bf 20b8 a0bf b4d5 503f
000001a0: 5d42 25be 0ba4 4dbf 90f4 f33e d57e 45be
000001b0: a5e6 c2bf 440b a8be e762 43be 413b 40bf
000001c0: 1859 7ebe 6f3e 82be 8c06 b13f 3f90 c5bf
000001d0: d927 703f abb7 123f 4a73 ec3e 218c 1f3f
000001e0: a73b e63e 33bd 47bf 1760 873f a057 59bf
000001f0: 8109 bfbe 10c4 ba3e 776c 93bf 3a22 0540
00000200: 0d19 2640 5d1e 01bd d5ae 073f ac53 aebe
00000210: a82e 393d 77d4 8e3e d90a b4be 5bd9 b93f
00000220: f6c1 9f3f 3119 61bf b56d 8bbe c6a6 853f
00000230: 0c78 753e 81f4 e8bf e82a bbbe 6537 8abf
00000240: 3746 1e3f 2c78 d7bf 2deb 8d3f 860a 94bf
00000250: a880 0bbf a53a f0bf a371 0b40 bffa cc3e
00000260: 83ea 2fbf ae43 8a3f 3d64 9dbf 98bc 3ebf
00000270: e5e2 58be 3e2c 9a3f cb28 2d3e 7481 c1be
00000280: a628 e9bf 907b 463f 489d 1c3f 364b 293e
00000290: a4ee 80bd 8593 7b3f a80a 2abe ddfa 943e
000002a0: 94c4 b53f 0b74 d3bf 5b3d 333f d829 d9bf
000002b0: 8175 97be 9053 b43f 62c4 033e 007b abbe
000002c0: 097f 28c0 1408 af3f 3b9e 2c3f 00fe 1dc0
000002d0: b89b fb3e 0214 a1bf 8721 47bf 0f50 d93f
000002e0: ae49 fb3d aea9 9cbf 1fc5 ac3e 2c88 7dbd
000002f0: 888d efbe 510b 13bf ca63 f23f 3f47 43be
00000300: 61b9 983f 1ec7 253e 537b 89bf 33a9 7d3f
00000310: 00c7 7bbf 2402 0e3b 61db 63be bed7 cc3e
00000320: 622f acbf 624e 353d 3876 c13e 5e8f 81be
00000330: 29dc 8d3f 808d 253e 3660 0dc0 811c 5f3f
00000340: 6f25 2e3f d723 3ebf 829c cdbc ed28 0e3f
00000350: 719d b53c 6146 12bf 26df e1be 668a b93b
00000360: d095 ecbd 1456 323f 7c1d 4c3f 6544 8ebe
00000370: 9b8c 0fbe 919d 35bf bbf1 2abf 30ce 253f
00000380: cdbd b7be c97f 293f 4857 38bf 59d4 cd3d
00000390: e91c 033f 3891 cabe 0aba 223f 2014 02c0
000003a0: dfb7 1f3e d7ea e63f f68f 183f f705 003f
000003b0: bbd1 42bf ee74 1840 4b9f 83bf fecb ebbe
000003c0: 2d32 c83e 58e0 95bc 48ee 01bf 8e1a 423f
000003d0: 0d4a b1bf f55d 343f fde1 20bf dfc6 88bf
000003e0: 59c3 1f3d 3c78 46bf 0356 dfbf e030 90bf
000003f0: 9fa4 8a3f 95a2 71bd ab95 5dbf 3e0c 273f

Wxh.weight f4 [128, 128]
-0.17499293 -0.20573881 -0.17555484 -0.034895733 0.19255905 -0.12322033 0.065773204 -0.23301874
0.04486163 0.19369929 0.009985708 0.21379866 0.09449214 0.12943809 0.071568325 -0.062112987
-0.10765305 -0.07613986 0.23374236 -0.05472497 0.108293146 -0.010341254 0.20822453 -0.23981522
0.22274914 0.08848736 -0.08681607 0.13884698 -0.20254074 -0.051054858 0.026607882 0.08822022
-0.0009422157 0.041028675 0.08995973 0.25801578 -0.23937994 0.12189747 0.2555939 -0.19567458
-0.05761482 -0.01707892 -0.1171987 0.04535894 -0.060679108 0.21062092 0.08561081 -0.13164085
0.24922822 -0.062183265 0.116546944 0.13909934 -0.0028422193 -0.092972554 -0.067824 -0.09151862
-0.18874387 -0.040326353 0.16928329 -0.0837254 -0.038055226 0.100294955 0.08991613 0.0005318087
0.010886681 0.110067524 -0.109543584 -0.13896592 -0.10116766 0.15683791 -0.0011806384 -0.18165141
0.024616934 0.106165364 -0.17417742 0.10424629 0.04991256 0.1458702 -0.042068586 0.065600544
0.122642405 -0.066729 -0.057103973 0.20416437 -0.09725355 -0.11879268 -0.17538305 0.29714662
0.1918639 0.080802344 -0.042119585 0.1184273 0.0053518354 -0.10289417 0.1782839 0.021096816
-0.065758035 -0.009967457 0.13220719 -0.004973605 -0.008473365 0.15516172 0.053682506 -0.030792296
0.23293716 0.072079346 -0.06898421 -0.074330874 -0.035723332 -0.08810472 -0.20052834 -0.034068633
-0.12863867 -0.23407362 0.060761746 0.018908208 0.13502198 0.17346795 0.11094784 0.0626466
0.030858956 0.12825492 -0.14181899 -0.0007250345 -0.004704183 -0.085646726 0.2537869 -0.08717633
0.0745744 -0.024704594 -0.14527601 -0.117752515 -0.1418449 0.05324554 -0.015634917 0.12659101
0.086080186 -0.08045045 0.08845058 0.023224019 -0.35973138 -0.050750036 0.15486209 0.12323116
0.13169082 0.034419585 -0.22018106 0.067294076 -0.13289164 0.047697477 -0.13386019 -0.097995445
-0.1597375 0.24518079 0.17897469 0.09442258 -0.08093929 0.1383698 -0.07839799 -0.12785068
-0.0681977 0.15527277 -0.00086054933 -0.28847453 0.19188666 -0.15952834 -0.038430624 0.015526336
0.04624987 -0.01195905 -0.0660265 -0.048258178 -0.029422184 -0.16230431 -0.14694367 0.1859745
-0.0994511 -0.13637081 -0.08803353 0.24642685 0.10580612 0.044602696 -0.20453064 0.02184392
0.3043582 0.08051322 0.107921794 0.2064552 -0.31394374 -0.07481934 0.010231908 -0.08834364
0.09002133 -0.075305 0.003570847 -0.012384193 -0.053743523 -0.08624717 -0.061132815 0.020320028
0.024730619 0.007997626 0.27112564 -0.11485992 0.21143226 -0.059588287 0.12824307 -0.03471161
0.25476468 0.20612733 -0.086220324 0.08454484 0.014782773 -0.11816129 0.16437806 -0.10590847
-0.05287987 -0.10708157 0.08275579 0.14285424 -0.07189166 0.10050585 0.057144176 -0.3557503
-0.03756699 0.1347501 0.22769234 -0.18296129 0.026616331 -0.054448865 0.091452695 -0.16576421
-0.13294353 -0.10304372 -0.1479896 0.045941457 -0.06667584 0.14057286 0.17889708 -0.28473556
-0.016792309 0.23430169 0.08822901 -0.0086509595 0.09805253 0.12620507 -0.025831286 -0.10566208
-0.20590095 -0.28575894 -0.115020886 0.07519174 0.07666133 0.12760422 -0.25064117 0.14889306
00000000: 5931 33be 32ad 52be a6c4 33be d4ee 0ebd
00000010: 332e 453e f15a fcbd 1ab4 863d 779c 6ebe
00000020: d4c0 373d 1b59 463e 189b 233c 09ee 5a3e
00000030: 1885 c13d 6b8b 043e 6a92 923d 306a 7ebd
00000040: 3479 dcbd 37ef 9bbd 285a 6f3e 4a27 60bd
00000050: ccc8 dd3d 5d6e 29bc d038 553e 1f92 75be
00000060: 5a18 643e dc38 b53d a0cc b1bd e72d 0e3e
00000070: d766 4fbe e61e 51bd c6f8 d93c cdac b43d
00000080: 06ff 76ba af0d 283d cf3c b83d a51a 843e
00000090: 0420 75be 61a5 f93d 34dd 823e eb5e 48be
000000a0: 84fd 6bbd 17e9 8bbc df05 f0bd 4cca 393d
000000b0: a88a 78bd 03ad 573e b854 af3d dccc 06be
000000c0: af35 7f3e e1b3 7ebd 2ab0 ee3d 0f70 0e3e
000000d0: 8744 3abb 6568 bebd 4fe7 8abd 1d6e bbbd
000000e0: 1346 41be 3f2d 25bd 9958 2d3e 3978 abbd
000000f0: ccdf 1bbd 7167 cd3d f325 b83d 1469 0b3a
00000100: 0d5e 323c 156b e13d 6358 e0bd 154d 0ebe
00000110: fd30 cfbd 1e9a 203e a7bf 9aba d402 3abe
00000120: 74a9 c93c 3a6d d93d 915b 32be 147f d53d
00000130: 1d71 4c3d ff5e 153e 1c50 2cbd 9459 863d
00000140: f12b fb3d 37a9 88bd dbe5 69bd 7710 513e
00000150: df2c c7bd 9449 f3bd 9d97 33be 9a23 983e
00000160: f877 443e b37b a53d 9685 2cbd 038a f23d
00000170: 735e af3b 2eba d2bd 0e90 363e 3bd3 ac3c
00000180: 26ac 86bd 8b4e 23bc 5261 073e 9ff9 a2bb
00000190: ded3 0abc b7e2 1e3e 30e2 5b3d 2040 fcbc
000001a0: 1487 6e3e 569e 933d 9847 8dbd c93a 98bd
000001b0: a152 12bd 3f70 b4bd 4d57 4dbe 8d8b 0bbd
000001c0: dbb9 03be ffb0 6fbe 4fe1 783d 63e5 9a3c
000001d0: 3443 0a3e 95a1 313e 9f38 e33d dc4c 803d
000001e0: eccb fc3c 4255 033e ff38 11be 3e10 3eba
000001f0: 8c25 9abb 8d67 afbd 5bf0 813e 8189 b2bd
00000200: 77ba 983d 4a61 cabc 3cc3 14be 3b28 f1bd
00000210: ca3f 11be ff17 5a3d cc14 80bc 13a1 013e
00000220: cf4a b03d 35c3 a4bd 9425 b53d 4c40 be3c
00000230: b62e b8be 45df 4fbd 2b94 1e3e 9e60 fc3d
00000240: f5d9 063e 8dfb 0c3d 2577 61be 7ad1 893d
00000250: bf14 08be 6e5e 433d a512 09be d6b1 c8bd
00000260: 3a92 23be ac10 7b3e 2445 373e a060 c13d
00000270: 80c3 a5bd d0b0 0d3e 208f a0bd 4aeb 02be
00000280: 3cab 8bbd d3ff 1e3e 7d96 61ba efb2 93be
00000290: f07d 443e 665b 23be 6e69 1dbd 2c62 7e3c
000002a0: 8170 3d3d e4ef 43bc e738 87bd 5eaa 45bd
000002b0: cb06 f1bc 1a33 26be 6778 16be 1970 3e3e
000002c0: 05ad cbbd caa4 0bbe ec4a b4bd 5257 7c3e
000002d0: e1b0 d83d 51b1 363d 7b70 51be 05f2 b23c
000002e0: d7d4 9b3e 1de4 a43d 1a06 dd3d fe68 533e
000002f0: 3cbd a0be e23a 99bd bca3 273c 83ed b4bd
00000300: 1a5d b83d 8239 9abd df04 6a3b 12e7 4abc
00000310: 2b22 5cbd 5ba2 b0bd 6766 7abd 3076 a63c
00000320: de97 ca3c 7a08 033c fbd0 8a3e ae3b ebbd
00000330: b381 583e d912 74bd 2752 033e c32d 0ebd
00000340: 8470 823e 0b13 533e 4894 b0bd d825 ad3d
00000350: 7233 723c 8cfe f1bd b952 283e 8ae6 d8bd
00000360: 9098 58bd 954d dbbd de7b a93d 6248 123e
00000370: ef3b 93bd 03d6 cd3d 0310 6a3d e724 b6be
00000380: d8df 19bd eefb 093e 2e28 693e 345a 3bbe
00000390: 7e0a da3c c605 5fbd 8d4b bb3d 18be 29be
000003a0: 5922 08be 9608 d3bd 968a 17be 1c2d 3c3d
000003b0: 588d 88bd 55f2 0f3e cc30 373e dcc8 91be
000003c0: 0690 89bc c8ec 6f3e 69b1 b43d c1bc 0dbc
000003d0: c4cf c83d e73b 013e 229c d3bc 5c65 d8bd
000003e0: b3d7 52be ff4e 92be 1290 ebbd 21fe 993d
000003f0: 9e00 9d3d aeaa 023e 0a54 80be 6c77 183e

Wxh.bias f4 [128]
0.09454149 -0.08979774 -0.06935772 0.11737131 -0.09000412 0.2779438 -0.13263638 0.08363661
-0.14484246 -0.1598002 -0.096313216 -0.033212993 -0.23512 -0.118175946 -0.0639542 -0.02970345
0.09261889 0.18701766 -0.105824545 0.13200401 -0.047803614 0.030699177 0.06405924 -0.03308366
-0.011238889 0.082843885 0.14792627 0.14055078 -0.078402914 0.13842466 0.012481858 -0.043236148
-0.071775325 -0.009486796 -0.0665374 0.04980264 -0.15710138 -0.21064457 0.16091752 0.09641611
0.057181645 0.008841181 0.16929138 0.028869035 0.3018595 0.1062108 -0.074448355 0.08520428
0.04332888 -0.06701837 -0.024075793 0.035517044 0.17584835 0.046484403 0.017835451 0.06265718
0.06175954 0.15406136 -0.051169563 -0.098709226 0.23562169 0.0749577 -0.09456745 0.017940976
0.02299582 0.13255192 -0.07216177 0.20522 -0.099542625 -0.057807304 0.16270638 0.025672266
-0.18348174 0.19782981 0.020532165 0.034752734 0.04432871 -0.16505115 -0.116057284 0.021223102
0.22547746 0.13044052 0.1134631 -0.044085413 0.10401523 0.0041038576 -0.045451757 0.046609316
0.15122665 -0.14528073 0.11028077 0.22032559 -0.09348634 -0.12329532 -0.15319489 0.0011857057
0.0744115 -0.19327627 0.1608779 -0.13164912 0.17479478 -0.045027867 -0.1504582 -0.056899965
0.012371805 -0.17275737 -0.0043691983 0.19374184 -0.18163557 0.076015815 0.04196019 0.104325086
-0.03208784 -0.014052232 0.17976892 -0.048412867 0.010416223 0.08495647 -0.14318214 -0.06965539
-0.13314208 0.085286066 0.2071671 0.019567586 0.09667637 -0.10498596 0.010539023 0.05245286
00000000: f89e c13d e1e7 b7bd 6c0b 8ebd 5f60 f03d
00000010: 1454 b8bd a64e 8e3e d5d1 07be ac49 ab3d
00000020: 9551 14be aaa2 23be dd3f c5bd 590a 08bd
00000030: 4cc3 70be 3b06 f2bd 6bfa 82bd a654 f3bc
00000040: f9ae bd3d 8f81 3f3e 8aba d8bd 0f2c 073e
00000050: b9cd 43bd d77c fb3c 7e31 833d bb82 07bd
00000060: 5123 38bc 0eaa a93d fc79 173e 8bec 0f3e
00000070: b591 a0bd 32bf 0d3e b580 4c3c 6318 31bd
00000080: f1fe 92bd 826e 1bbc c344 88bd dafd 4b3d
00000090: 2fdf 20be 36b3 57be 90c7 243e cf75 c53d
000000a0: 4d37 6a3d 9ada 103c b85a 2d3e c17e ec3c
000000b0: 548d 9a3e 0c85 d93d 6178 98bd 957f ae3d
000000c0: a079 313d ed40 89bd 993a c5bc 527a 113d
000000d0: 9711 343e 6e66 3e3d a71b 923c 6852 803d
000000e0: 92f7 7c3d 43c2 1d3e 2d97 51bd 1028 cabd
000000f0: d046 713e 6c83 993d 94ac c1bd f4f8 923c
00000100: bb61 bc3c b1bb 073e 8dc9 93bd 3125 523e
00000110: 01dd cbbd 5ac7 6cbd 809c 263e a54e d23c
00000120: a3e2 3bbe e693 4a3e 1233 a83c e258 0e3d
00000130: 0592 353d 2b03 29be 71af edbd 12dc ad3c
00000140: 90e3 663e 3392 053e 575f e83d e892 34bd
00000150: f005 d53d a779 863b 9f2b 3abd 69e9 3e3d
00000160: 29db 1a3e 79c4 14be e2da e13d 089d 613e
00000170: c475 bfbd 4282 fcbd 1fdf 1cbe ae69 9b3a
00000180: 0e65 983d 37ea 45be 2dbd 243e 07cf 06be
00000190: 67fd 323e 246f 38bd b711 1abe f00f 69bd
000001a0: 1cb3 4a3c 4fe7 30be 7e2b 8fbb 4364 463e
000001b0: adfe 39be 2eae 9b3d 73de 2b3d 64a8 d53d
000001c0: 8a6e 03bd 553b 66bc 5815 383e 924c 46bd
000001d0: cea8 2a3c a8fd ad3d 579e 12be 7ca7 8ebd
000001e0: 6656 08be 76aa ae3d 9d23 543e 344c a03c
000001f0: 43fe c53d e102 d7bd deab 2c3c cfd8 563d

Whh.weight f4 [128, 128]
0.11502953 -0.11186276 0.19270507 -0.14493084 0.0012257984 -0.18345374 0.27896938 -0.06360117
0.014397899 0.10230913 -0.14406388 0.25378788 0.05120905 -0.077102624 0.07977704 0.09801095
-0.14044248 -0.2579871 0.014618327 -0.14420831 0.25720808 -0.07507357 0.4132751 -0.022656353
0.08807597 -0.160359 -0.3140759 -0.46591341 0.11411973 -0.019883363 -0.16551043 -0.17227481
0.014574119 -0.25322908 -0.4381211 -0.15287201 -0.038531967 0.11755624 0.02107438 -0.31859004
0.24071334 -0.07170834 0.35428223 -0.034929484 -0.108370274 0.010458154 -0.005028639 -0.16496871
0.21542828 -0.24288817 0.22342552 0.07943345 -0.004829935 0.43342495 0.16004446 -0.022989228
-0.18132067 0.34071252 0.11708799 0.03160326 0.020800712 0.29225844 -0.05273593 -0.13449533
0.17095655 -0.21801734 0.08290442 0.1100917 -0.07444276 0.028661823 -0.4604656 -0.063813016
-0.20350045 0.055883568 -0.056431312 -0.44372475 0.07380849 0.30535483 -0.18952163 0.14843826
-0.015781406 -0.43897253 -0.2034409 -0.24354121 0.23513718 0.23954237 -0.098971605 0.32870564
0.12426106 -0.15022688 -0.11756075 0.15226996 -0.15058519 -0.109200574 -0.090748094 -0.19366755
0.11111941 -0.17203516 -0.0026515066 0.07935686 0.066881455 0.044898074 0.047967274 -0.018686151
-0.21034522 0.074553095 -0.33943796 0.07384301 -0.025652442 -0.13121891 -0.16828181 -0.23290128
-0.15184572 -0.102424406 0.17856331 -0.54580724 0.31998208 -0.31698737 -0.23615411 -0.007757574
0.36253378 0.0049267723 -0.025502758 -0.050943714 0.1141625 0.43946493 0.1562161 0.11054188
0.07705728 -0.1160959 0.08988718 -0.2502502 0.3579249 -0.0042638322 0.36832318 -0.12931119
0.079119466 -0.089614145 -0.35594925 0.032084253 0.25135082 -0.20183499 -0.2848436 0.019380374
-0.43562967 -0.10521829 -0.35761958 -0.22552817 -0.08502368 -0.17654896 0.08326944 0.3001462
0.05818131 -0.19079572 -0.032206725 -0.16659476 0.29532692 0.20938723 -0.07557514 -0.040069997
0.3838815 -0.043939706 0.30928093 -0.06035738 0.4058231 -0.28931662 0.15975545 0.14309728
-0.2231405 -0.0037023714 -0.12413068 -0.031370606 -0.19871971 0.09117238 -0.045039684 -0.41303545
0.26990163 0.1096501 -0.025609799 -0.1442556 -0.1162852 -0.37193817 -0.057245485 0.010684486
-0.17629083 -0.111215435 0.41461325 -0.051029507 -0.472478 0.18447669 0.14659065 -0.18878835
0.117136486 -0.048057392 0.08059264 -0.31797656 0.06540972 0.077199586 -0.13183136 -0.2836992
0.065855525 -0.032858353 -0.00161859 -0.3035023 0.039384354 0.4546987 -0.4416784 0.10603736
-0.050978538 -0.13786532 -0.40455684 -0.14725219 -0.19041647 0.038634695 0.12697485 -0.069966845
-0.21370852 0.38775912 0.05158003 -0.16081528 -0.12022763 -0.15594359 0.036841005 0.16577187
-0.24860471 -0.14580904 0.12411803 -0.39201358 -0.32330656 0.4226293 -0.1300383 0.16378805
-0.08268868 -0.18714024 0.10583602 -0.12368093 0.29171142 0.36020133 -0.053148787 -0.08730709
-0.03231653 0.18860002 -0.033510394 -0.014272367 -0.17920452 -0.24193928 0.18488915 -0.21504323
-0.15657808 0.06320837 0.19299638 0.13810591 -0.2697963 0.053497057 0.059682425 -0.2733599
00000000: 9a94 eb3d 4d18 e5bd 7a54 453e c068 14be
00000010: f8aa a03a 4cdb 3bbe 13d5 8e3e 5541 82bd
00000020: 2ae5 6b3c 7387 d13d 7b85 13be 7cf0 813e
00000030: 95c0 513d fbe7 9dbd 2562 a33d f7b9 c83d
00000040: 27d0 0fbe e316 84be b581 6f3c 58ab 13be
00000050: c7b0 833e 2cc0 99bd cb98 d33e d199 b9bc
00000060: 2d61 b43d 2635 24be 8ece a0be 348c eebe
00000070: 9bb7 e93d 6fe2 a2bc 917b 29be cf68 30be
00000080: 49c8 6e3c 3ea7 81be 6951 e0be 7b8a 1cbe
00000090: b2d3 1dbd 53c1 f03d 2ea4 ac3c 3c1e a3be
000000a0: 8f7d 763e d2db 92bd 7b64 b53e 3812 0fbd
000000b0: 3cf1 ddbd ad58 2b3c 48c7 a4bb 8fed 28be
000000c0: 3b99 5c3e adb7 78be a9c9 643e 01ae a23d
000000d0: 6e44 9ebb e0e9 dd3e b2e2 233e e853 bcbc
000000e0: 20ac 39be df71 ae3e d4cb ef3d 6c72 013d
000000f0: 4166 aa3c e6a2 953e a101 58bd 25b9 09be
00000100: 3c0f 2f3e f03f 5fbe cbc9 a93d c277 e13d
00000110: 7275 98bd 33cc ea3c 26c2 ebbe 66b0 82bd
00000120: 6c62 50be 2be6 643d 8524 67bd e42f e3be
00000130: e828 973d 7857 9c3e f511 42be 3300 183e
00000140: 0248 81bc 02c1 e0be d052 50be de62 79be
00000150: cdc7 703e 984a 753e a0b1 cabd 1b4c a83e
00000160: 957c fe3d 13d5 19be b1c3 f0bd a8ec 1b3e
00000170: 0133 1abe 8da4 dfbd 23da b9bd c950 46be
00000180: 9392 e33d fc29 30be e6c4 2dbb d985 a23d
00000190: 25f9 883d 0be7 373d 5579 443d b313 99bc
000001a0: bd64 57be 4baf 983d d0ca adbe 013b 973d
000001b0: 1225 d2bc 405e 06be 1152 2cbe ac7d 6ebe
000001c0: 727d 1bbe e3c3 d1bd 4dd9 363e 06ba 0bbf
000001d0: b1d4 a33e 2b4c a2be 62d2 71be 3f33 febb
000001e0: 079e b93e c370 a13b 29eb d0bc 5baa 50bd
000001f0: 07ce e93d 8c01 e13e 1df7 1f3e c863 e23d
00000200: 35d0 9d3d b0c3 edbd c516 b83d cb20 80be
00000210: ef41 b73e 9eb7 8bbb db94 bc3e 276a 04be
00000220: 6309 a23d 9f87 b7bd fb3e b6be c76a 033d
00000230: 0eb1 803e d5ad 4ebe 05d7 91be 97c3 9e3c
00000240: da0a dfbe b07c d7bd ea19 b7be dbf0 66be
00000250: e520 aebd 40c9 34be 2b89 aa3d c3ac 993e
00000260: 864f 6e3d f45f 43be 33eb 03bd d197 2abe
00000270: 1735 973e 9b69 563e 24c7 9abd 7020 24bd
00000280: 1e8c c43e 1ffa 33bd 125a 9e3e 4d39 77bd
00000290: 0cc8 cf3e 4f21 94be ef96 233e 1888 123e
000002a0: f17e 64be 7ca3 72bb 3a38 febd 777e 00bd
000002b0: 2e7d 4bbe 96b8 ba3d 887b 38bd 6279 d3be
000002c0: 8c30 8a3e 3b90 e03d a4cb d1bc bdb7 13be
000002d0: ef26 eebd ae6e bebe 3e7a 6abd fb0d 2f3c
000002e0: 9585 34be ebc4 e3bd 3048 d43e 5104 51bd
000002f0: a3e8 f1be 75e7 3c3e dc1b 163e bc51 41be
00000300: 41e5 ef3d d4d7 44bd c10d a53d d3cd a2be
00000310: 88f5 853d d11a 9e3d cdfe 06be 0641 91be
00000320: 43df 863d 7b96 06bd de26 d4ba a764 9bbe
00000330: 7d51 213d 45ce e83e ac23 e2be 1e2a d93d
00000340: dfce 50bd 912c 0dbe 1322 cfbe 47c9 16be
00000350: 89fc 42be 6a3f 1e3d b205 023e c74a 8fbd
00000360: 68d6 5abe 5d88 c63e 9545 533d c3ac 24be
00000370: e739 f6bd adaf 1fbe 98e6 163d 1ac0 293e
00000380: 3c92 7ebe f74e 15be 9831 fe3d 01b6 c8be
00000390: 7088 a5be de62 d83e c328 05be 0eb8 273e
000003a0: af58 a9bd b1a1 3fbe 8ec0 d83d 6d4c fdbd
000003b0: 335b 953e 4f6c b83e 8bb2 59bd 0fce b2bd
000003c0: 565e 04bd 5d20 413e 3242 09bd a5d6 69bc
000003d0: 6481 37be eebe 77be 9553 3d3e 4b34 5cbe
000003e0: 0156 20be 6473 813d d8a0 453e a36b 0d3e
000003f0: be22 8abe bb1f 5b3d 8f75 743d d4f5 8bbe

Whh.bias f4 [128]
0.035473593 -0.1167889 -0.116988786 0.121259324 -0.08870871 0.1875022 -0.10409425 0.18698423
-0.14656429 -0.12784776 -0.22452335 0.005558586 -0.11757374 -0.14300548 -0.038288347 -0.10126613
0.086166136 0.2402 -0.04109021 0.11129034 -0.008123801 0.07528284 0.051832657 -0.13999048
-0.048158836 0.014531906 0.13694504 0.18365212 -0.058310427 0.031482942 0.114125356 -0.16425571
-0.07107768 0.13605979 -0.0789763 0.10763618 -0.15541111 -0.15595365 0.18007228 0.026287975
0.008653395 -0.11808228 0.06968537 -0.04804285 0.27599615 -0.0020813127 -0.11635882 0.025126455
0.047484167 -0.038736485 0.052900854 0.0740086 0.13451122 0.055830725 0.025826046 -0.026124367
0.17401704 0.19243808 0.020068837 -0.033942852 0.22053364 -0.013474283 0.033504292 -0.019243011
-0.02340821 0.20037246 0.0592249 0.15100868 -0.1560293 -0.08718599 0.11657433 0.080363624
-0.18384229 0.2007108 0.022510022 0.13508037 0.0010002814 -0.053257097 -0.21409252 0.059406828
0.25104445 0.060836326 0.1215389 -0.015275252 -0.038207408 -0.00936102 -0.115464054 -0.037739728
0.16300301 -0.09168808 0.041417018 0.09296811 -0.07638478 -0.035272546 -0.112441786 -0.050343588
0.11448814 -0.13694644 0.13327108 -0.14980905 0.1758584 0.06376884 -0.039176118 -0.074422024
0.037568375 -0.103515066 -0.07703825 0.1488307 -0.29812595 0.035875674 -0.08948826 0.09217648
0.026423467 -0.05660925 0.025116878 -0.018387422 0.043124974 0.01385025 -0.08756478 -0.062499877
-0.12657848 0.16770183 0.12997775 0.04936781 0.16941863 -0.121950276 0.081968844 0.12647656
00000000: c24c 113d 052f efbd d197 efbd cf56 f83d
00000010: eaac b5bd 9400 403e 5e2f d5bd cb78 3f3e
00000020: f314 16be 86ea 02be 73e9 65be cd24 b63b
00000030: 80ca f0bd 0770 12be 3ed4 1cbd 9e64 cfbd
00000040: df77 b03d fdf6 753e 354e 28bd 31ec e33d
00000050: b119 05bc e42d 9a3d 7b4e 543d aa59 0fbe
00000060: 3342 45bd 3b17 6e3c 523b 0c3e 4d0f 3c3e
00000070: ead6 6ebd 42f4 003d 8eba e93d a632 28be
00000080: 2d91 91bd 4253 0b3e 54be a1bd 5c70 dc3d
00000090: 1724 1fbe 50b2 1fbe de64 383e e159 d73c
000000a0: f8c6 0d3c 1fd5 f1bd 34b7 8e3d 94c8 44bd
000000b0: 5e4f 8d3e a266 08bb 884d eebd ffd5 cd3c
000000c0: c27e 423d 26aa 1ebd 91ae 583d d291 973d
000000d0: 4fbd 093e c2ae 643d 2591 d33c c502 d6bc
000000e0: 8631 323e 7d0e 453e 6767 a43c a907 0bbd
000000f0: 92d3 613e 3dc3 5cbc cc3b 093d 85a3 9dbc
00000100: 93c2 bfbc 702e 4d3e cf95 723d 05a2 1a3e
00000110: 25c6 1fbe 918e b2bd 86be ee3d af95 a43d
00000120: 2741 3cbe 2287 4d3e f066 b83c 8252 0a3e
00000130: e01b 833a 1d24 5abd 123b 5bbe 9354 733d
00000140: e688 803e 832f 793d 63e9 f83d 0d45 7abc
00000150: 5f7f 1cbd f75e 19bc 6b78 ecbd f994 1abd
00000160: 43ea 263e f6c6 bbbd e4a4 293d 1166 be3d
00000170: a06f 9cbd f279 10bd e147 e6bd 1435 4ebd
00000180: c278 ea3d b03b 0cbe 3778 083e 8b67 19be
00000190: 3914 343e 3d99 823d 2377 20bd 936a 98bd
000001a0: 4ce1 193d b5ff d3bd 3bc6 9dbd 1367 183e
000001b0: f7a3 98be 5ff2 123d 9f45 b7bd 06c7 bc3d
000001c0: 0776 d83c 1adf 67bd e9c1 cd3c 38a1 96bc
000001d0: d0a3 303d 29ec 623c 2a55 b3bd dfff 7fbd
000001e0: ca9d 01be 07ba 2b3e e318 053e e735 4a3d
000001f0: 147c 2d3e 11c1 f9bd 48df a73d 1283 013e

fc.weight f4 [44, 128]
0.12403321 0.40551278 0.49438387 -0.34926173 0.12703891 -0.4782657 0.14342257 -0.5372365
-0.045539398 0.6071669 0.23120666 0.031919386 0.37661153 0.052507352 -0.11190963 -0.11679019
-0.37241694 -0.12476622 0.14942437 -0.36440033 -0.17440146 -0.4104105 -0.066527374 0.36939624
0.31970605 0.080758765 -0.3903651 -0.35886294 0.33721018 -0.24643321 -0.16041413 0.031060332
0.37726027 -0.33036077 0.5668588 -0.09726136 0.6350844 0.36641636 -0.43494472 -0.1203362
0.1068551 0.21018407 -0.42049176 0.17194857 -0.3657509 -0.15673444 0.3442382 0.3147759
-0.05966256 0.31815842 0.08915252 -0.29850653 -0.40179482 -0.4468627 0.095800735 0.06071472
-0.09344899 -0.500082 -0.122480094 0.19398122 -0.36652803 0.18921192 0.25818402 0.0935751
-0.10441459 -0.74424297 0.20773427 -0.4278565 0.1523828 -0.42497912 -0.38689896 0.10451922
0.44773552 -0.5673086 -0.035353117 -0.18672003 0.1758058 0.35443562 0.45496386 0.07794791
-0.33012635 -0.08336454 -0.14155106 -0.15433662 -0.26303414 -0.2869971 -0.01708645 0.17251056
-0.29321793 0.59004986 -0.33355373 -0.53990847 -0.19540899 0.20006526 0.2787844 0.2580842
-0.27450922 0.3250503 -0.39903936 0.343045 -0.32416567 -0.24050605 0.24238518 0.23671198
0.43762168 0.3493503 -0.0088441875 -0.38691625 0.57634723 0.039715145 0.2199444 0.03680921
-0.11212273 0.07837954 -0.3486979 0.24112955 0.080956645 -0.43072692 0.4851902 0.02192026
-0.25321966 -0.38298717 -0.30596325 0.27135032 -0.51185447 0.32029736 -0.5428074 -0.3290123
0.08941289 0.006100087 -0.0015761938 -0.08113067 -0.22267286 -0.09084191 0.09585456 0.02659064
-0.14759839 0.13385738 -0.22677729 -0.15094982 0.13978635 0.29302654 0.008316595 -0.30649382
0.06403828 -0.023378374 -0.16002376 -0.13641673 -0.28925696 0.081200615 -0.08673308 0.2507786
-0.10062765 0.29171747 0.009608413 -0.1566424 0.17385784 -0.3294473 -0.25020918 0.3545707
0.06568362 0.005628202 0.2904766 -0.27775145 -0.08535172 0.37193027 -0.1502457 -0.26836655
0.3750905 0.2311812 -0.28898892 0.1391088 0.025143899 -0.064849906 0.003984654 0.37322477
0.15045756 0.22425587 -0.05518547 -0.25488165 -0.3383137 -0.35203412 0.15313965 -0.2228504
-0.22792481 0.08990484 0.2453542 0.27522185 -0.02346075 -0.1417141 0.29675415 0.2443508
-0.22783822 -0.047086723 -0.020858807 -0.30160457 0.3483337 -0.19612083 -0.104911186 0.046509694
0.13731632 0.04993702 0.14397113 -0.12605838 0.2086522 0.3669963 0.059084896 0.4025088
-0.06461154 0.21164945 -0.1594786 0.0292727 -0.3363961 0.12561473 -0.1240019 -0.23578496
-0.47150433 0.11024077 -0.5892365 -0.040301476 0.2503693 0.11517265 -0.10022055 0.011781548
0.04995119 0.2487681 -0.37569112 -0.09082585 -0.41325587 0.13679367 0.016490381 -0.0038210275
0.05601896 -0.11851476 0.19984172 0.19744119 -0.046784617 -0.19927078 0.17186725 0.18130988
-0.32647595 0.28946996 0.12503915 -0.049476434 0.007804256 -0.037274096 0.2458773 0.16325188
0.3156668 -0.22140709 0.2922826 0.21570615 -0.10054633 -0.090215735 0.03504856 -0.048756596
00000000: 2005 fe3d 5f9f cf3e e21f fd3e 6fd2 b2be
00000010: 7d16 023e 3edf f4be 5edd 123e 5588 09bf
00000020: 8587 3abd 4a6f 1b3f 70c1 6c3e e7bd 023d
00000030: 3ad3 c03e f311 573d e030 e5bd b22f efbd
00000040: 6fad bebe 6f85 ffbd b402 193e ae92 babe
00000050: 4c96 32be 5321 d2be 813f 88bd 8121 bd3e
00000060: 83b0 a33e da64 a53d efdd c7be e2bc b7be
00000070: d0a6 ac3e fd58 7cbe 9a43 24be 3d72 fe3c
00000080: 4228 c13e 0c25 a9be a91d 113f f730 c7bd
00000090: e494 223f ed9a bb3e 13b1 debe d372 f6bd
000000a0: d9d6 da3d 7e3a 573e b24a d7be 4913 303e
000000b0: b443 bbbe fe7e 20be fd3f b03e 4f2a a13e
000000c0: ba60 74bd a9e5 a23e 9995 b63d d9d5 98be
000000d0: 0db8 cdbe 30cb e4be 2d33 c43d 00b0 783d
000000e0: 2f62 bfbd 6005 00bf d8d6 fabd 03a3 463e
000000f0: 90a9 bbbe c5c0 413e b230 843e 4da4 bf3d
00000100: 51d7 d5bd b586 3ebf 4bb8 543e 0210 dbbe
00000110: 3d0a 1c3e dd96 d9be 9f17 c6be 2c0e d63d
00000120: 973d e53e 233b 11bf 6ece 10bd 8933 3fbe
00000130: 7006 343e 9678 b53e 06f1 e83e 27a3 9f3d
00000140: 5206 a9be 07bb aabd c3f2 10be 6b0a 1ebe
00000150: 69ac 86be 49f1 92be e2f8 8bbc 9ca6 303e
00000160: a920 96be 820d 173f 8ec7 aabe 7137 0abf
00000170: 4b19 48be e8dd 4c3e d4bc 8e3e 9d23 843e
00000180: 798c 8cbe fe6c a63e e34e ccbe 98a3 af3e
00000190: 0bf9 a5be 3847 76be d233 783e a064 723e
000001a0: f30f e03e 0bde b23e 36e7 10bc e319 c6be
000001b0: 7e8b 133f 59ac 223d 1b39 613e 41c5 163d
000001c0: 9aa0 e5bd 7485 a03d 8888 b2be aaea 763e
000001d0: 99cc a53d 3d88 dcbe da6a f83e 1e92 b33c
000001e0: 02a6 81be e516 c4be 37a7 9cbe 6eee 8a3e
000001f0: e508 03bf 04fe a33e 6df5 0abf 4d74 a8be
00000200: 1b1e b73d 3de3 c73b 4a98 ceba d627 a6bd
00000210: 5b04 64be 530b babd 654f c43d 9dd4 d93c
00000220: 0824 17be e911 093e 4e38 68be 9792 1abe
00000230: 2724 0f3e 9307 963e 5442 083c c2ec 9cbe
00000240: 8026 833d 0184 bfbc 45dd 23be d4b0 0bbe
00000250: 7d19 94be 824c a63d 1da1 b1bd 0d66 803e
00000260: df15 cebd fe5b 953e 9b6c 1d3c de66 20be
00000270: ca07 323e 51ad a8be 6b1b 80be 4a8a b53e
00000280: 2285 863d c86c b83b 59b9 943e 7035 8ebe
00000290: e2cc aebd a56d be3e 02da 19be 5767 89be
000002a0: dd0b c03e c4ba 6c3e 5bf6 93be 8a72 0e3e
000002b0: 94fa cd3c 07d0 84bd b391 823b 5117 bf3e
000002c0: 8c11 1a3e 55a3 653e 290a 62bd d97f 82be
000002d0: 7437 adbe d13d b4be a4d0 1c3e e532 64be
000002e0: 1f65 69be 0720 b83d 223e 7b3e e1e9 8c3e
000002f0: c230 c0bc 801d 11be 29f0 973e 1937 7a3e
00000300: 6c4e 69be 02de 40bd 17e0 aabc ea6b 9abe
00000310: cb58 b23e e6d3 48be addb d6bd f380 3e3d
00000320: a69c 0c3e c38a 4c3d 2b6d 133e 7315 01be
00000330: eca8 553e f0e6 bb3e 0103 723d a215 ce3e
00000340: 0e53 84bd a2ba 583e 5c4e 23be 4dcd ef3c
00000350: 1c3c acbe 26a1 003e b5f4 fdbd 9d71 71be
00000360: 0469 f1be eac5 e13d 34d8 16bf 2913 25bd
00000370: 6830 803e a3df eb3d 6f40 cdbd 6507 413c
00000380: 9e99 4c3d 11bd 7e3e 965a c0be e702 babd
00000390: 4696 d3be a413 0c3e d616 873c 346a 7abb
000003a0: 2374 653d deb7 f2bd 4fa3 4c3e 062e 4a3e
000003b0: 3aa1 3fbd a40d 4cbe f8fd 2f3e 4ca9 393e
000003c0: db27 a7be 6835 943e 430a 003e cda7 4abd
000003d0: d8ba ff3b b9ac 18bd 42c7 7b3e 802b 273e
000003e0: 149f a13e 8ab8 62be 11a6 953e 13e2 5c3e
000003f0: 3ceb cdbd 07c3 b8bd 148f 0f3d ffb4 47bd

fc.bias f4 [44]
-0.51836866 -0.16817749 -0.41080245 0.006068916 0.027435608 0.10800952 -0.07435323 -0.00096590415
0.1142497 0.06949389 -0.037874836 0.15115222 -0.029235 0.091456614 0.036547735 0.0576671
0.0473233 0.18149298 0.18995476 -0.036996387 0.026060661 -0.27970412 0.06913511 0.032683186
-0.015178288 -0.120440856 -0.132899 0.021156482 -0.14822428 0.029049244 -0.19092162 -0.087247066
-0.07492723 -0.051429547 -0.2291884 -0.09154499 -0.36791188 -0.45172468 -0.2367552 -0.31609726
-0.12659416 -0.14286138 -0.28007957 -0.17745392
00000000: cfb3 04bf b836 2cbe b354 d2be c2dd c63b
00000010: a4c0 e03c 1834 dd3d 8246 98bd bb34 7dba
00000020: bffb e93d d052 8e3d a522 1bbd a6c7 1a3e
00000030: 3d7e efbc 9b4d bb3d 14b3 153d 5634 6c3d
00000040: 14d6 413d 4cd9 393e 8083 423e 8689 17bd
00000050: 2b7d d53c 6135 8fbe b596 8d3d cede 053d
00000060: 5bae 78bc b2a9 f6bd ad16 08be 5c50 ad3c
00000070: 1bc8 17be aef8 ed3c f580 43be 97ae b2bd
00000080: 7373 99bd caa7 52bd 5db0 6abe f17b bbbd
00000090: f25e bcbe 7548 e7be f56f 72be 80d7 a1be
000000a0: e6a1 01be 414a 12be 9766 8fbe 7bb6 35be
