homework01/rnn_model.pth (torch, 181227 bytes, 7 tensors)

embed.weight f4 [44, 128]
0	0x3fe204df	1.7657737
1	0xbf50ff6a	-0.8163973
2	0xbf97455b	-1.1818041
3	0x3f9623b5	1.1729647
4	0x3f382b02	0.71940625
5	0x3f7c5b4e	0.9857682
6	0xbd0d7386	-0.034534
7	0xbf093293	-0.53592795
8	0x3f6b59ac	0.91933703
9	0xbf0d0913	-0.5509197
10	0xc0089c19	-2.1345274
11	0xbf2ddbe1	-0.67913634
12	0xbe3a71ef	-0.18207525
13	0x3f027773	0.50963515
14	0x3f11ce70	0.56955624
15	0xbfa76605	-1.3078009
16	0xbfcba1a8	-1.5908709
17	0x3fb9d479	1.4517967
18	0x3f38acfe	0.72138965
19	0xbf22071c	-0.632921
20	0xbcbd06d8	-0.023074552
21	0x3fc4bf8b	1.5370954
22	0xbf0d9781	-0.553093
23	0x3e364781	0.17800714
24	0x3f16c7de	0.58898723
25	0x3edc3f9f	0.4301729
26	0xbfcef6e1	-1.6169091
27	0x3f42555a	0.75911486
28	0x3f78aec3	0.97141665
29	0x3e1aeede	0.15130183
30	0x3f9ce83c	1.2258372
31	0xbebf72f3	-0.37392387
32	0xbd8f1da4	-0.069880754
33	0x3ff3c7fe	1.9045408
34	0xbfd55279	-1.6665794
35	0xbf89bb6f	-1.0760325
36	0x3f96d7a2	1.1784556
37	0x3ee83f51	0.45360807
38	0xbfd672f0	-1.6753826
39	0x3f11caee	0.5695027
40	0x3fa04fc9	1.2524348
41	0x3f745628	0.95443964
42	0x3edaec87	0.4275858
43	0x3fc3866c	1.5275397
44	0x4015b6ab	2.3392742
45	0x3ebc708b	0.36804613
46	0x3d4ea97d	0.050454605
47	0xbed574b8	-0.41690612
48	0xbd549cef	-0.051907476
49	0x3e83448b	0.25638232
50	0xbea3f229	-0.3202069
51	0x3eea4390	0.4575467
52	0x3fc353c0	1.5259933
53	0x3f103376	0.56328523
54	0xbf624c78	-0.8839793
55	0xbf61bf11	-0.8818217
56	0x3f0d3c5b	0.5517022
57	0xbedbe779	-0.42950037
58	0x3b70d96f	0.0036750694
59	0xbef35873	-0.4752842
60	0x3f5a4c61	0.85272795
61	0x3fa4b6f0	1.2868328
62	0x3f2575a7	0.6463265
63	0xbf902d2c	-1.1263785
64	0xbd8e7094	-0.06955066
65	0x3f43180b	0.7620856
66	0x3f3190e8	0.69361734
67	0x3ef6f4c2	0.4823361
68	0x3fce2a05	1.6106573
69	0x3f191b9a	0.5980774
70	0x3fb7f013	1.437014
71	0x3f17f7a3	0.5936224
72	0xbe3f4f17	-0.18682514
73	0x40130101	2.2969363
74	0xbe02b11f	-0.12762879
75	0x3f70b23f	0.9402198
76	0xbe8a1e05	-0.26976028
77	0x3fcfefd4	1.6245065
78	0xbb0600cb	-0.002044725
79	0x3ffdcd4a	1.9828274
80	0xbfbe7003	-1.4877933
81	0x3ecb0c6d	0.39657918
82	0xbc042001	-0.008064271
83	0x3fb0a925	1.3801619
84	0xbfdde1df	-1.7334555
85	0xbf41d5a6	-0.75716627
86	0xbf57bd99	-0.8427368
87	0xbf94224e	-1.1572969
88	0xbe908b40	-0.2823124
89	0x3f4e794e	0.80653846
90	0x3ecb3e41	0.39695933
91	0x3f7b811d	0.98243886
92	0x3ec3363e	0.3812732
93	0x3e6c4fd3	0.23077326
94	0x3f0453fe	0.5169066
95	0xbf6421c3	-0.89114016
96	0xbfc6093b	-1.5471567
97	0xbf7b581e	-0.9818133
98	0xbf9901a1	-1.1953622
99	0xbecb6d41	-0.39731792
100	0xbdcabf73	-0.09899797
101	0x3e37ca20	0.17948198
102	0xbe4efe36	-0.20214161
103	0xbf01f4f5	-0.507644
104	0x3fd50b2d	1.6644036
105	0x3f8a01bf	1.0781783
106	0x3e8387ba	0.2568949
107	0xbf681147	-0.90651363
108	0x3f35d25f	0.71024126
109	0x3e2d42cc	0.16920012
110	0xbeb56f88	-0.35436654
111	0x3f821805	1.016358
112	0x4000cd20	2.0125198
113	0xbf5468a9	-0.829722
114	0x3ef2f2e4	0.47450936
115	0xbdb1f590	-0.086894155
116	0xbf7ec8dc	-0.9952524
117	0xc024d472	-2.5754666
118	0x3fc75918	1.5574064
119	0xbeb8cfc2	-0.36096007
120	0xbe025ec0	-0.12731457
121	0x3ec2823b	0.37989983
122	0xbf2e2d0c	-0.68037486
123	0xbf1735a9	-0.59066254
124	0xbf4a65b6	-0.7906145
125	0xbf881680	-1.0631866
126	0x3d62c202	0.0553608
127	0xbf8a4896	-1.0803401
128	0xbf406879	-0.7515941
129	0x3f047cbf	0.5175285
130	0x3e64f36c	0.22358483
131	0x3dacc37c	0.08435723
132	0x3f2adb6e	0.66741073
133	0xbf445f2f	-0.7670774
134	0x3f8c75c6	1.0973442
135	0xbf04c429	-0.51861817
136	0xbed17ede	-0.40917104
137	0xbf997e5f	-1.199169
138	0x3ed83e8b	0.42235216
139	0x3f59d1d7	0.85085815
140	0x3fb86262	1.4405024
141	0x401de127	2.4668672
142	0x3ef97e2d	0.48729077
143	0x3caca541	0.021074893
144	0x3faedda8	1.3661394
145	0xbf4aa596	-0.79158914
146	0xbf4f6d00	-0.81025696
147	0x3e5b7ff4	0.21435529
148	0xbefc90e1	-0.49329284
149	0x3e411275	0.18854697
150	0x3f4d93c4	0.803036
151	0x3d87fdc6	0.066402
152	0xc00b9a44	-2.1812906
153	0xbfa73e8d	-1.3065964
154	0x3ec0920f	0.37611434
155	0xbee17ef8	-0.44042182
156	0xbf766a54	-0.96255994
157	0xc01abf92	-2.4179425
158	0xbf94718d	-1.1597153
159	0x3f859bbe	1.0438154
160	0x4002a095	2.0410511
161	0x3f36694b	0.71254414
162	0xbf407291	-0.75174814
163	0x3efa3868	0.4887116
164	0xbfbd90e6	-1.4809844
165	0x3f9557b2	1.1667387
166	0xbdfbcdbc	-0.122951
167	0x3fc403f4	1.5313706
168	0xbf0dd4de	-0.55402935
169	0xbfd9be5e	-1.701122
170	0x3eb07f57	0.34472153
171	0x3ffc9866	1.9734008
172	0x3de5ddd4	0.11223951
173	0xbfba4d19	-1.4554778
174	0x3fc1fb4e	1.5154817
175	0xbf15f8b0	-0.5858259
176	0x3f4036f1	0.75083834
177	0x3e66c44f	0.22535823
178	0x3fd83af1	1.6892987
179	0x3eb4b9d3	0.35298023
180	0xbf756487	-0.9585652
181	0x404f2b46	3.2370162
182	0x3e1462af	0.1449077
183	0x3ff55773	1.9167312
184	0x3caf4d0f	0.02139905
185	0xbecf74fc	-0.4051894
186	0xbfa3f7ea	-1.2810032
187	0x3f80098a	1.0002911
188	0x3f6194a7	0.8811745
189	0xbf87df08	-1.0614939
190	0x3d175a89	0.036951575
191	0x3f7d49f2	0.98940957
192	0xbf520368	-0.8203645
193	0xc0101f13	-2.2518966
194	0x3f4756d4	0.77866864
195	0x3f335cf9	0.7006374
196	0xbeff07c9	-0.49810627
197	0x3efa4607	0.48881552
198	0xbf805d37	-1.0028447
199	0xbed60ab0	-0.4180503
200	0xbfe3d135	-1.779822
201	0x3f4a7011	0.7907725
202	0xbfb85b30	-1.4402828
203	0xbfbc12c7	-1.469323
204	0x400fe0dc	2.2480993
205	0xbe45f9de	-0.19333598
206	0xbea8baaf	-0.32954928
207	0xbfa5626b	-1.292066
208	0xbe74c328	-0.23902571
209	0x3f4d4a73	0.80191725
210	0xbf54721e	-0.8298663
211	0x3fd2b203	1.6460575
212	0xbfc70bcc	-1.5550475
213	0xbf85d03e	-1.0454175
214	0x3def1fc8	0.11675984
215	0xbf30360b	-0.68832463
216	0xbe89ded2	-0.2692781
217	0xbf96acef	-1.1771525
218	0x3fe6740e	1.8004167
219	0xbdc7f66b	-0.097637974
220	0xbf60297e	-0.8756331
221	0xbf8ff267	-1.124585
222	0x3f4ab609	0.79184014
223	0x3fe423f2	1.782347
224	0x3cdf6174	0.027268149
225	0xbf8a999f	-1.0828131
226	0x3e66e5db	0.2254862
227	0xbe7f1891	-0.24911715
228	0x3f1e97c2	0.61950314
229	0x3e2475ed	0.1606061
230	0xbced40eb	-0.02896162
231	0x3f3cca64	0.73746324
232	0x3f1082fb	0.5644986
233	0xbef3e454	-0.47635138
234	0xbdb134ca	-0.08652647
235	0x3e859d3d	0.26096526
236	0x3feaf176	1.8354938
237	0xbf5740f5	-0.8408349
238	0xbd1f970b	-0.038962405
239	0xbfb3681a	-1.4016144
240	0x3fbc3ede	1.4706686
241	0x3f0042c3	0.5010187
242	0xbf54241d	-0.82867604
243	0x3f937e58	1.1522932
244	0xbf5defb7	-0.866939
245	0xbf50c58f	-0.8155145
246	0xbea22d2b	-0.31675085
247	0xbf22ee0b	-0.63644475
248	0xbefd741a	-0.4950264
249	0xbe02da85	-0.12778671
250	0xbf951987	-1.1648415
251	0xbd2f94fe	-0.0428667
252	0x3fc20049	1.5156337
253	0xbfd2b90c	-1.6462722
254	0xbfc477e0	-1.5349083
255	0xbeee068f	-0.4648938

Wxh.weight f4 [128, 128]
0	0x3d82672c	0.06367335
1	0xbe82b00e	-0.25524944
2	0xbe7de436	-0.24794087
3	0xbd532545	-0.051549215
4	0x3dfe4e37	0.12417262
5	0xbd894336	-0.067022726
6	0xbe015a91	-0.12632205
7	0x3d8eca68	0.069722
8	0x3dbd4d9f	0.09243321
9	0xbe2d819b	-0.16943972
10	0x3d5cc48b	0.053898375
11	0xbda2cd9a	-0.07949372
12	0x3d2324e8	0.03983012
13	0x3e552c92	0.20817783
14	0x3dca7318	0.09885234
15	0xbe228e90	-0.15874696
16	0x3c50e514	0.012749929
17	0x3d765c94	0.060146883
18	0x3d362b51	0.044474903
19	0x3e823f28	0.2543881
20	0x3cb686cc	0.022281073
21	0x3d61a63b	0.05509017
22	0xbe482558	-0.19545496
23	0xbd23d36c	-0.03999655
24	0xbc85d656	-0.016337555
25	0xbd86cb9a	-0.06581803
26	0x3e1270a5	0.14300783
27	0xbe66458b	-0.22487466
28	0xbe72ed68	-0.23723376
29	0x3dbaa22a	0.091129616
30	0xbe638520	-0.22218752
31	0xbe880a2c	-0.2657026
32	0xbd9d730b	-0.07687958
33	0xbe5c35fa	-0.21504965
34	0x3d429f0f	0.04751497
35	0xbe976ced	-0.2957529
36	0xbda40ead	-0.08010612
37	0x3e0c0499	0.13673629
38	0xbd0e650f	-0.034764346
39	0xbe540cbb	-0.20707981
40	0x3eacb5f1	0.3373256
41	0xbe10c133	-0.141362
42	0xbc9c783f	-0.019100307
43	0x3d862f87	0.06552034
44	0x3e97a3b5	0.29617086
45	0x3dd4e66e	0.103955135
46	0x3d0b2071	0.033966485
47	0xbe50ce68	-0.20391238
48	0x3d954010	0.072876096
49	0x3d3967e8	0.04526511
50	0xbe3500dc	-0.17676109
51	0x3e54c5bd	0.20778556
52	0x3e940676	0.2891118
53	0x3cfbf3f2	0.03075597
54	0xbd9bb7df	-0.0760343
55	0x3bfddb5e	0.007747098
56	0x3d38240e	0.04495626
57	0x3d63b646	0.05559375
58	0xbe41a7d0	-0.18911672
59	0xbe9d947a	-0.3077734
60	0x3c79ded0	0.015250877
61	0x3cded51b	0.027201226
62	0xbd413097	-0.04716548
63	0xbe662816	-0.22476229
64	0xbd184306	-0.037173294
65	0xbe59dccc	-0.21275634
66	0xbe53cfaa	-0.20684686
67	0x3e05b762	0.13058236
68	0xbe29b379	-0.1657237
69	0x3d9370e7	0.07199269
70	0x3e6723fb	0.22572319
71	0xbd96620d	-0.073429205
72	0x3e8f60b6	0.28003472
73	0x3eb89f73	0.3605915
74	0xbd113e91	-0.03546006
75	0x3e35f1d9	0.17768039
76	0xbda42926	-0.08015661
77	0x3e655e6c	0.223993
78	0x37b1e360	2.1205924e-05
79	0x3da2696e	0.07930265
80	0x3e80b3e1	0.25137237
81	0x3e78f3bf	0.24311732
82	0x3e166494	0.14686805
83	0x3b4fac5a	0.0031688423
84	0x3e101a18	0.14072454
85	0xbe57b17e	-0.21063802
86	0xbc806d3a	-0.015677083
87	0x3e203fe5	0.15649374
88	0x3d0a7b3f	0.033808943
89	0xbe0b29f2	-0.1359022
90	0x3d13cdec	0.036085054
91	0x3cb5f14b	0.022209784
92	0xbd44ee5e	-0.048078887
93	0x3e153ac8	0.14573205
94	0x3d8911d9	0.06692857
95	0xbe2374cf	-0.15962528
96	0xbe2e7be2	-0.17039445
97	0xbdca0b34	-0.09865418
98	0xbd8b6013	-0.06805434
99	0xbe080a31	-0.13285138
100	0xbd520662	-0.05127562
101	0x3d1e926b	0.038713854
102	0x3da34bbf	0.07973432
103	0xba91f74b	-0.0011136321
104	0x3e396d01	0.18107988
105	0xbb830873	-0.00399881
106	0x3e0d2fe9	0.13787808
107	0x3d9a5dd1	0.07537425
108	0x3eb95eec	0.36205232
109	0xbe80cab5	-0.25154653
110	0x3e10b90c	0.1413309
111	0x3cc87f23	0.024474686
112	0xbdfb4030	-0.12268102
113	0xbd51306e	-0.051071577
114	0x3e064a81	0.13114358
115	0x3e3c6deb	0.18401305
116	0x3caeca11	0.021336587
117	0x3d2dd254	0.042436913
118	0x3dded9f6	0.108814165
119	0x3eb47492	0.35245186
120	0x3df9b913	0.12193503
121	0x3bd1850d	0.0063940347
122	0xbd57a662	-0.05264891
123	0x3d4dd31e	0.050250165
124	0xbd02a852	-0.031898804
125	0x3df8d382	0.12149717
126	0x3e33d76d	0.17562647
127	0xbcf52080	-0.029922724
128	0xba999759	-0.0011718079
129	0x3e84b011	0.25915578
130	0x3e198b10	0.14994454
131	0x3e556728	0.20840132
132	0x3dcef468	0.101052105
133	0xbdc62d39	-0.09676594
134	0xbe819c6c	-0.25314653
135	0x3db5f195	0.08883969
136	0xbe3ed886	-0.18637285
137	0xbe300e81	-0.17193033
138	0x3d18ca3b	0.037302237
139	0xbd23d39b	-0.039996725
140	0xbe8127a1	-0.25225547
141	0xbe040ac5	-0.12894733
142	0xbe024c59	-0.12724437
143	0x3e53d568	0.20686877
144	0xbe85a67c	-0.2610358
145	0xbe8be713	-0.27324733
146	0x3cc4743b	0.023981204
147	0xbe2bc961	-0.16776039
148	0x3d8d14c2	0.06888725
149	0x3e90202e	0.2814955
150	0xbd93fbf1	-0.072257884
151	0xbcfa010a	-0.030518074
152	0xbdfefaa0	-0.12450147
153	0x3de4b0d2	0.11166538
154	0xbcfa8868	-0.030582622
155	0x3e46e4b1	0.19423176
156	0xbe23a3d6	-0.15980467
157	0x3df539b3	0.11973896
158	0x3ce727b0	0.028217167
159	0xbdeea4a4	-0.116524965
160	0x3d8f1e29	0.069881745
161	0x3e81beb1	0.25340798
162	0xbe01d56e	-0.12679073
163	0xbb89b08e	-0.004201955
164	0xbdd1b29d	-0.10239146
165	0xbd97ff4e	-0.074217424
166	0xbdf7cdfe	-0.12099837
167	0x3d9770e4	0.07394579
168	0x3e656668	0.22402346
169	0x3c488b3a	0.012240225
170	0x3e5ffd6e	0.2187402
171	0xbe87e13f	-0.26539037
172	0x3e1fc6dc	0.15603203
173	0xbe37a7f7	-0.17935167
174	0x3dbce507	0.09223371
175	0xbd510de2	-0.05103863
176	0x3de43d35	0.11144487
177	0xbd89ed02	-0.06734659
178	0x3c379da5	0.011207019
179	0xbde15e44	-0.11004308
180	0x3e106682	0.14101604
181	0xbd20fd3b	-0.039304
182	0x3df26b82	0.11836912
183	0x3dede2eb	0.11615547
184	0x3d1c6385	0.038180847
185	0x3d89423f	0.067020886
186	0xbd096fc7	-0.033553865
187	0x3e9570d0	0.29187632
188	0xbdaa6b20	-0.08321214
189	0x3d18f327	0.037341263
190	0xbdc9cd91	-0.09853662
191	0xbe25b136	-0.16180882
192	0xbdcb9eed	-0.09942422
193	0xbda0dd37	-0.078546934
194	0xbdccbf7f	-0.099974625
195	0xbd5ed3a0	-0.05440104
196	0xbe10c2fa	-0.14136878
197	0xbdabd4df	-0.08390211
198	0xbe727b69	-0.2367989
199	0xbd969cb9	-0.07354111
200	0x3e4e37b5	0.20138438
201	0x3c62e515	0.013848563
202	0xbe25a61f	-0.16176651
203	0xbe2ba7ea	-0.16763273
204	0xbcf98160	-0.030457199
205	0xbdea1ef6	-0.114316866
206	0x3e388e5e	0.18023059
207	0x3d3ff017	0.046859827
208	0x3d500259	0.05078349
209	0xbe868833	-0.26275787
210	0xba5adb84	-0.00083487504
211	0xbdb0d6f5	-0.0863475
212	0x3c891fc3	0.016738778
213	0xbe018874	-0.12649709
214	0x3e45ce55	0.1931699
215	0xbd6820a0	-0.05667174
216	0xbe2ae1e6	-0.16687736
217	0x3d0ca330	0.034335315
218	0x3df5b640	0.11997652
219	0xbd15de1d	-0.036588777
220	0x3b263b33	0.0025364875
221	0xbe56b0da	-0.20965901
222	0x3c8e0263	0.017335122
223	0xbbfa3601	-0.0076358323
224	0xbd9eddbe	-0.07757138
225	0xbda743d6	-0.081672356
226	0xbe15cc5a	-0.14628735
227	0x3e17be6d	0.14818735
228	0xbd1b2486	-0.03787663
229	0x3db290ef	0.0871905
230	0x3de7d903	0.113206886
231	0xbcf308b5	-0.029667238
232	0x3ec04048	0.37549043
233	0x3e2c3e71	0.16820695
234	0xbc8aedb6	-0.016959053
235	0xbddfb5bc	-0.10923335
236	0x3d1fd4c6	0.039021276
237	0x3de716f7	0.11283677
238	0xbeadba94	-0.3393141
239	0xbe393baa	-0.18089166
240	0x3d8233e2	0.06357552
241	0x3d8990ba	0.067170575
242	0x3dfb15b0	0.12259996
243	0x3da07ac4	0.07835916
244	0x3da42606	0.08015065
245	0xbd14f711	-0.036368433
246	0x3d056d02	0.03257466
247	0x3e335791	0.17513873
248	0xbc882089	-0.016617076
249	0xbe7f1757	-0.24911247
250	0xbdc64a62	-0.09682156
251	0x3e16edcc	0.1473915
252	0xbdb4e36c	-0.0883244
253	0xbd1acf5e	-0.037795417
254	0xbd33e406	-0.043918632
255	0xbdd47f37	-0.10375827

Wxh.bias f4 [128]
0	0xbd3a929e	-0.04554998
1	0x3d270941	0.04078031
2	0x3d0576f7	0.032584157
3	0xbe3f6f1e	-0.18694732
4	0x3e042e6a	0.1290833
5	0xbcb3d3b4	-0.021951534
6	0xbbf74f6b	-0.007547309
7	0x3d9c86a8	0.07642871
8	0x3da4c395	0.08045117
9	0x3d4ef8c5	0.050530214
10	0x3d244e20	0.04011357
11	0x3d0c2d98	0.03422317
12	0xbd6a54c6	-0.057209753
13	0xbe96599e	-0.29365247
14	0x3e1fb555	0.15596516
15	0x3c8925e3	0.016741699
16	0x3db4c5ac	0.088267654
17	0x3d8eb1dd	0.069675185
18	0xbb7bfe8b	-0.003845128
19	0x3e2f0e6f	0.1709535
20	0x3d8b5c6e	0.06804739
21	0x3def8b61	0.11696506
22	0xbd9700b0	-0.07373178
23	0xbde00a21	-0.10939432
24	0xbce2ade6	-0.027670812
25	0x3e3cf336	0.18452153
26	0x3d8f5c1b	0.069999896
27	0x3db12c45	0.08651022
28	0xbcce1fd7	-0.025161667
29	0xbdede364	-0.11615637
30	0x3d56f0c6	0.052475713
31	0x3da03ac1	0.078237064
32	0xbe08def6	-0.13366303
33	0xbe04444a	-0.12916675
34	0xbd04ef42	-0.032454737
35	0xbda12fc9	-0.078704424
36	0x3cd25e69	0.025679784
37	0xbd060a10	-0.03272444
38	0xbe2a4359	-0.16627254
39	0xbe5e9c96	-0.2173942
40	0xbd912dc5	-0.07088808
41	0xbde4e217	-0.11175936
42	0xbe68f0b2	-0.22748068
43	0x3ddf93af	0.1091684
44	0x3cb6a41b	0.022295048
45	0xbcd8aab4	-0.026448585
46	0xbe7a68d8	-0.24454057
47	0xbd9eee59	-0.07760305
48	0xbe28fd08	-0.16502774
49	0x3d8f5e96	0.07000463
50	0xbdac4dae	-0.08413254
51	0x3dd572b3	0.10422268
52	0x3d7c0184	0.061524883
53	0xbc6b95a3	-0.014378938
54	0x3d48109b	0.04884396
55	0xbe345028	-0.17608702
56	0xbdd08f7d	-0.10183618
57	0x3dd3a958	0.10335034
58	0xbe2b545c	-0.167314
59	0x3d91ef00	0.07125664
60	0xbc67e51c	-0.014153745
61	0xbe708260	-0.23487234
62	0x3dc84df2	0.09780492
63	0x3db8e4c9	0.09028012
64	0x3dc7c124	0.097536355
65	0xbd8af9d2	-0.06785931
66	0x3e2fe561	0.17177345
67	0xbe3cfa6d	-0.18454905
68	0x3e3cd566	0.1844078
69	0x3d9a4596	0.07532804
70	0x3dfb7b23	0.12279346
71	0xbe255495	-0.16145547
72	0xbd069fa4	-0.03286709
73	0xbccf01ca	-0.025269408
74	0xbe3cbbb6	-0.18430981
75	0xbd17bd6d	-0.037045885
76	0x3e3323cc	0.17494124
77	0x3c72b602	0.014813902
78	0xbe394157	-0.18091331
79	0xbaff6802	-0.0019485953
80	0xbdc1322a	-0.09433396
81	0xbe0a27bc	-0.1349172
82	0x3e7104f7	0.2353705
83	0xbdda10af	-0.106477134
84	0xbd355cfd	-0.044278134
85	0xbe659d42	-0.2242327
86	0xbe888a60	-0.26668072
87	0x3e384d64	0.17998272
88	0x3e0901d9	0.13379611
89	0x3ce93a89	0.028470295
90	0x3da02e64	0.07821348
91	0xbe7bd162	-0.24591592
92	0xbd97c3e1	-0.07410408
93	0xbd7ae30d	-0.06125169
94	0x3de67c2d	0.112541534
95	0x3d290aa2	0.041269906
96	0xbd750e28	-0.059827954
97	0xbd11bc63	-0.03558005
98	0x3d994c6c	0.074852794
99	0xbdf76e1f	-0.12081551
100	0xbe13aa01	-0.1442032
101	0x3ddaff65	0.10693244
102	0xbd6bcf25	-0.057570595
103	0xbdaba94e	-0.08381902
104	0xbc75e040	-0.015007079
105	0x3e23c699	0.15993728
106	0xbe2371db	-0.15961401
107	0xbd1b51e6	-0.0379199
108	0x3e64d304	0.22346121
109	0x3e5e78f6	0.2172583
110	0x3cb3104b	0.021858355
111	0x3dbcd13e	0.09219597
112	0x3def096c	0.11671719
113	0xbc6c3639	-0.014417225
114	0xbc52f7c4	-0.012876455
115	0xbd87fd06	-0.06640057
116	0x3e765061	0.240541
117	0x3c50bf1d	0.012740877
118	0xbe356756	-0.17715201
119	0xbdf47a84	-0.119374305
120	0xbe0b11ae	-0.13580963
121	0xbe48fca1	-0.1962762
122	0x3d869b8c	0.06572637
123	0xbe2328a3	-0.1593347
124	0x3dc88685	0.097912826
125	0x3dcd014c	0.10010013
126	0xbcebf865	-0.028804967
127	0x3db3bc42	0.08776142

Whh.weight f4 [128, 128]
0	0xbe891ac5	-0.26778236
1	0x3e3fb132	0.18719938
2	0x3dfada56	0.122486755
3	0x3dbc8e77	0.092068605
4	0xbe2e651a	-0.17030755
5	0xbe2a2930	-0.16617274
6	0xbe418424	-0.18898064
7	0x3f0803e8	0.5313096
8	0x3e420d50	0.18950391
9	0xbee1bb88	-0.44088387
10	0xbeabb53e	-0.33536714
11	0x3e11fa25	0.14255579
12	0x3dd61548	0.10453278
13	0xbecfbc3c	-0.405733
14	0xbd7fd19a	-0.06245575
15	0x3db4e862	0.08833386
16	0x3de72865	0.112870015
17	0xbdf6f9f4	-0.120593935
18	0x3d31f918	0.043450445
19	0xbe48614f	-0.1956837
20	0xbd62b930	-0.05535239
21	0x3dbfb4cc	0.09360656
22	0x3e070b69	0.13187946
23	0xbe2e485e	-0.17019793
24	0xbce8b6d7	-0.028407497
25	0xbdcbc4a4	-0.099496156
26	0x3e4d13ac	0.20027035
27	0xbe745c05	-0.23863228
28	0xbdd3aa64	-0.10335234
29	0x3e3d919b	0.18512575
30	0x3e79329d	0.24335714
31	0xbd9c426b	-0.07629856
32	0x3d820e41	0.06350375
33	0x3d9f5aa4	0.0778096
34	0xbe5013c8	-0.20320046
35	0xbe34fe40	-0.17675114
36	0xbea15414	-0.3150946
37	0xbd7376eb	-0.05943958
38	0xbede6705	-0.43437973
39	0x3d5abfa9	0.053405438
40	0xbeb9ec9f	-0.3631334
41	0x3ee8f38d	0.45498314
42	0x3dc30200	0.09521866
43	0x3de931b1	0.11386431
44	0xbe2c40bd	-0.1682157
45	0xbe01ede3	-0.12688403
46	0xbe0e35b6	-0.13887677
47	0xbeaf46d3	-0.34233722
48	0xbd054228	-0.032533795
49	0xbc891b81	-0.016736748
50	0xbe4182d1	-0.18897559
51	0x3e665429	0.22493042
52	0xbe2f675f	-0.17129277
53	0xbe04619b	-0.12927859
54	0x3e023b49	0.12717928
55	0xbdf64a71	-0.12025917
56	0xbbe1e3d1	-0.006893613
57	0x3dbe0657	0.09278553
58	0x3e96bbfe	0.29440302
59	0x3e4a819b	0.19776003
60	0xbe14bd6f	-0.14525388
61	0x3df1a1a4	0.11798409
62	0xbe4ff766	-0.20309219
63	0x3e87c0c0	0.26514244
64	0x3e77e69f	0.24209069
65	0x3d6ca492	0.057774134
66	0xbe989128	-0.29798245
67	0x3bdcd32d	0.0067390413
68	0xb91e965e	-0.0001512407
69	0x3e4dd412	0.2010043
70	0x3e34a4da	0.17641011
71	0x3d026a94	0.031839922
72	0x3da4be03	0.08044054
73	0xbea2bd47	-0.31785032
74	0x3e480b32	0.1953552
75	0xbd4a34a3	-0.049366605
76	0xbe762bb9	-0.24040116
77	0xbd38ea4d	-0.04514532
78	0xbe9c64a9	-0.30545548
79	0x3de5b2bf	0.11215734
80	0x3bafe931	0.0053683748
81	0xbe8fca58	-0.28084064
82	0x3d1c402f	0.038147148
83	0xbdd59a72	-0.10429849
84	0x3e96271b	0.2932671
85	0xbce33f14	-0.027740039
86	0x3e4bf06c	0.19915932
87	0xbe83a7dc	-0.25714004
88	0xbda6061b	-0.08106633
89	0x3e468743	0.19387536
90	0xbe9fccc3	-0.31210908
91	0x3e36f688	0.17867482
92	0x3ecfe6ae	0.40605682
93	0xbdde0673	-0.10841074
94	0xbc6dcf9e	-0.014514832
95	0xbe619c5f	-0.22032307
96	0x3e8a6ba9	0.27035263
97	0x3b9db938	0.0048133396
98	0xbea5da7e	-0.3239326
99	0xbe0e6c20	-0.13908434
100	0x3d5ae838	0.053444117
101	0xbeaa31e9	-0.33241203
102	0x3c208ef8	0.009799711
103	0xbd8cac2a	-0.06868775
104	0x3ca084d3	0.019594586
105	0xbd8bc83f	-0.06825303
106	0xbd70c31a	-0.058779813
107	0x3ca87ae7	0.020566417
108	0xbe002ec9	-0.12517847
109	0xbe36f636	-0.1786736
110	0x3ea975ed	0.33097783
111	0xbe3183d4	-0.17335445
112	0xbe1dea0e	-0.15421316
113	0xbd3ba54d	-0.04581194
114	0x3e84ab11	0.25911763
115	0x3d5ae718	0.053443044
116	0x3dfe771c	0.12425062
117	0xbda5a9c1	-0.080890186
118	0x3ea36598	0.31913447
119	0xbe1c1f7a	-0.15246382
120	0x3e74685d	0.23867936
121	0x3e29317d	0.16522785
122	0xbe415aca	-0.1888229
123	0x3c2326ad	0.0099579515
124	0x3e589ba4	0.21153122
125	0x3d8f03ff	0.06983184
126	0xbd9fb347	-0.07797866
127	0x3e882509	0.26590756
128	0xbe88e26c	-0.26735246
129	0x3e526205	0.20545204
130	0x3e063414	0.13105804
131	0x3e767fb6	0.24072155
132	0xbe37457b	-0.17897598
133	0xbe710faf	-0.23541139
134	0x3e836dc1	0.25669673
135	0xbd05c388	-0.032657176
136	0x3d2c139f	0.0420109
137	0xbe4ed044	-0.20196635
138	0x3ea2782b	0.31732306
139	0xbd7ff9ac	-0.062493965
140	0xbe11494b	-0.14188115
141	0xbd9fb5c7	-0.07798343
142	0x3e5ba2e5	0.21448858
143	0x3e3d7a02	0.18503574
144	0x3dc73147	0.09726196
145	0x3dc55f11	0.09637273
146	0xbd228766	-0.039679907
147	0xbde9ec24	-0.114219934
148	0x3dc6eec0	0.09713507
149	0x3d9831da	0.074313834
150	0xbd60de4c	-0.0548995
151	0x3dcc725b	0.09982749
152	0xbe3f8c6d	-0.18705912
153	0x3d51841f	0.05115139
154	0x3dac0253	0.08398881
155	0xbe0ebf4a	-0.13940158
156	0xbd766d63	-0.060162913
157	0xbeb55f43	-0.3542424
158	0x3eb988bd	0.36237136
159	0x3db12cce	0.08651124
160	0xbc66642f	-0.014061972
161	0xbec52714	-0.38506377
162	0xbe16673c	-0.14687818
163	0x3db18fea	0.086700276
164	0xbdd9bada	-0.10631342
165	0xbc9d469b	-0.019198706
166	0xbd98c520	-0.074594736
167	0x3dc3bb81	0.09557248
168	0x3ca2b2d8	0.01986067
169	0xbe2ba6e9	-0.1676289
170	0x3e2a0b5d	0.16605897
171	0xbcbada73	-0.022809243
172	0x3bb2f5b5	0.0054614195
173	0x3e0f1f4e	0.13976786
174	0xbedf05fe	-0.4355926
175	0xbe2a7a2b	-0.16648166
176	0xbd2d072d	-0.04224317
177	0xbd488c4a	-0.048961915
178	0x3e1232f6	0.14277253
179	0x3d1cdc38	0.038295954
180	0xbdfe6851	-0.124222405
181	0xbce76468	-0.02824612
182	0x3c836a1d	0.01604181
183	0x3cbc29a2	0.02296907
184	0xbe479605	-0.19490822
185	0x3e2ba632	0.16762617
186	0xbec04786	-0.37554568
187	0x3dd5d9c5	0.10441927
188	0x3dc16f28	0.094450295
189	0xbe316a7b	-0.17325775
190	0xbe03aba1	-0.1285844
191	0xbe09082e	-0.13382027
192	0xbe1d3b56	-0.15354666
193	0x3db23fde	0.08703588
194	0x3f03e52c	0.51521564
195	0x3da7ba3e	0.0818982
196	0x3ed43cab	0.41452536
197	0x3ec903fc	0.39260852
198	0xbeaedec8	-0.34154344
199	0x3d69a4f2	0.05704207
200	0xbd8b2828	-0.067947686
201	0xbe92c038	-0.28662276
202	0x3e157728	0.14596236
203	0x3ea3a1ae	0.3195929
204	0x3bfde907	0.0077487263
205	0x3cb54828	0.022129133
206	0x3e0148f6	0.12625489
207	0xbda270f3	-0.079316996
208	0xbc604558	-0.013688408
209	0xbeb669f3	-0.35627708
210	0x3eabaca8	0.33530164
211	0xbede32ea	-0.4339822
212	0xbe813c74	-0.25241435
213	0xbe6bfde1	-0.23046066
214	0x3d812f1e	0.06307815
215	0x3dbd16a5	0.09232835
216	0x3e142bce	0.14469835
217	0x3f0ccb0b	0.5499732
218	0xbd1e5f25	-0.038664956
219	0xbd0eea62	-0.034891494
220	0xbe14a106	-0.1451455
221	0x3e890b83	0.26766595
222	0xbd844ca1	-0.06459928
223	0xbef9b128	-0.48767972
224	0xbe305469	-0.172197
225	0xbde15ad5	-0.11003653
226	0xbe77b76e	-0.24191067
227	0x3ee2f204	0.44325268
228	0xbee91c63	-0.4552947
229	0xbe4ebaa2	-0.20188382
230	0xbe450856	-0.19241461
231	0xbd3bdc88	-0.045864612
232	0xbea4da8e	-0.32197994
233	0xbdd82b73	-0.10555162
234	0xbe043d15	-0.12913926
235	0xbc6ce79d	-0.014459518
236	0x3dcf883b	0.10133406
237	0x3c2092de	0.009800641
238	0x3e5428e6	0.20718727
239	0x3e305219	0.17218818
240	0xbe41c5fa	-0.18923178
241	0x3d8a63bf	0.06757306
242	0xbdcf08af	-0.10109078
243	0xbe29fbcc	-0.16599959
244	0xbbd42e12	-0.0064752186
245	0xbe0edca5	-0.13951357
246	0xbe1d0865	-0.15335234
247	0x3dea6830	0.114456534
248	0x3b203239	0.0024443998
249	0xbe73a25b	-0.23792402
250	0xbec85140	-0.3912449
251	0xbc9538a4	-0.018215485
252	0xbbdb3d36	-0.0066906465
253	0x3df376da	0.118879035
254	0xbcd408d0	-0.025883108
255	0x3eabc7ad	0.33550778

Whh.bias f4 [128]
0	0xbcbf65cd	-0.023363972
1	0x3dadbfd0	0.08483851
2	0x3da27623	0.07932689
3	0xbe202ae4	-0.15641361
4	0x3d9970e8	0.07492238
5	0x3c5efde9	0.013610342
6	0xbc9f8a64	-0.01947517
7	0x3da12b74	0.07869616
8	0x3ddeaa61	0.10872341
9	0x3e377935	0.1791733
10	0x3da53d34	0.08068314
11	0x3da32e93	0.07967868
12	0x3b713cec	0.0036809994
13	0xbe4b74ad	-0.19868727
14	0x3dade611	0.08491147
15	0x3dc629c2	0.096759334
16	0x3df1a2b8	0.11798614
17	0x3ce10fae	0.027473297
18	0xbd1b3b58	-0.03789839
19	0x3dbd12a8	0.09232074
20	0x3b770907	0.003769459
21	0xbc973fad	-0.01846298
22	0xbdcdbdbe	-0.10045956
23	0xbdc72b1d	-0.0972502
24	0xbbf49202	-0.0074636946
25	0x3df73789	0.12071139
26	0x3e04b6ae	0.12960312
27	0x3dbf3c35	0.093376555
28	0x3c6443cc	0.01393218
29	0xbdaf4f9c	-0.08560106
30	0x3ddcdc28	0.10784179
31	0x3cc7be4a	0.02438273
32	0xbdbdfc85	-0.0927668
33	0xbe0d4d68	-0.1379906
34	0xbdb0c850	-0.086319566
35	0xbe0558be	-0.13022134
36	0x3d0919f7	0.033472028
37	0xbd1251ac	-0.03572242
38	0xbd20a9e8	-0.039224535
39	0xbe275de6	-0.16344413
40	0xbcadc371	-0.021211358
41	0xbe5ee052	-0.21765259
42	0xbe242532	-0.16029814
43	0x3d71ced3	0.059035134
44	0x3bc956ba	0.006144372
45	0xbd0c110c	-0.034195945
46	0xbe78e57e	-0.24306294
47	0xbda8d573	-0.08243837
48	0xbd8940f9	-0.06701846
49	0xbd787f11	-0.060668055
50	0xbdb8779a	-0.09007187
51	0x3d9716a1	0.07377363
52	0x3d43a621	0.047765855
53	0xbd7f8437	-0.06238195
54	0x3c92abf0	0.017904252
55	0xbd98f17b	-0.07467934
56	0xbb88f6f3	-0.0041798293
57	0x3e1b6136	0.15173802
58	0xbded1ff0	-0.11578357
59	0xbd317b93	-0.04333074
60	0xbdb6a45a	-0.08918066
61	0xbe5139e0	-0.20432234
62	0x3dacb2b2	0.08432521
63	0x3e6db75c	0.23214477
64	0x3dbc0630	0.09180868
65	0x3d437cf8	0.0477266
66	0x3e70b8e1	0.23508026
67	0xbe08ae04	-0.13347632
68	0x3e2412f4	0.16022855
69	0xbdb9bfa2	-0.09069754
70	0x3e43845f	0.19093464
71	0xbd2f46e9	-0.042792235
72	0x3ddd4ba7	0.10805445
73	0x3cd018fb	0.025402537
74	0xbe49e3f0	-0.19715858
75	0xbc47f55c	-0.012204494
76	0x3de911d4	0.113803536
77	0x3dfa0835	0.122085966
78	0xbe197ad5	-0.14988263
79	0x3dc6a055	0.0969855
80	0x3d34537e	0.044024937
81	0xbdeecc30	-0.116600394
82	0x3e011da9	0.1260897
83	0xbe124206	-0.14282998
84	0x3c86482c	0.016391836
85	0xbe26d15a	-0.16290799
86	0xbea62e38	-0.32457137
87	0x3e476678	0.19472682
88	0x3d74bf39	0.059752677
89	0xbd8c7263	-0.06857755
90	0x3e1c0acd	0.15238495
91	0xbe79d7bf	-0.24398707
92	0xbe012b24	-0.12614113
93	0xbe2dfb89	-0.16990484
94	0x3cf75e43	0.030196315
95	0x3d53a9d6	0.05167564
96	0xbd93e91d	-0.07222197
97	0xbe078f94	-0.13238364
98	0x3e172877	0.1476153
99	0xbe128738	-0.14309394
100	0xbe2bdaf9	-0.1678275
101	0x3e2a84a8	0.16652167
102	0xbde5680f	-0.11201488
103	0xbdf60729	-0.120130844
104	0x3b26ae03	0.002543331
105	0x3dcfe5dc	0.10151264
106	0xbdf85c07	-0.12126928
107	0xbe2e0420	-0.16993761
108	0x3e3f0396	0.18653712
109	0x3ddbed5b	0.10738631
110	0x3e1971cf	0.14984821
111	0x3e05784d	0.13034172
112	0x3e20d38f	0.15705703
113	0x3dc91a16	0.098194286
114	0x3dafe145	0.08587889
115	0xbe2b7778	-0.16744792
116	0x3e8b3b7b	0.27193817
117	0xbda448be	-0.08021687
118	0xbd6a2489	-0.05716375
119	0xbdc095e4	-0.09403589
120	0xbe33129e	-0.1748757
121	0xbe289a61	-0.16465141
122	0x3e0b1759	0.13583125
123	0xbd9166be	-0.07099675
124	0x3e0264c9	0.12733759
125	0x3d022cf9	0.03178117
126	0xbdeec43c	-0.116585225
127	0xbd74f49a	-0.059803583

fc.weight f4 [44, 128]
0	0x3ebb83a1	0.36623862
1	0xbeb72ec7	-0.35777876
2	0xbeb617cb	-0.35565028
3	0x3eb9ceb3	0.3629051
4	0xbee55ff5	-0.44799772
5	0x3dae0a99	0.08498115
6	0xbdeeee5c	-0.11666557
7	0xbe9e7976	-0.30952042
8	0xbe457a6a	-0.19284979
9	0xbe9fc26b	-0.31203017
10	0xbeb59799	-0.35467222
11	0xbef504d9	-0.4785526
12	0x3f0441de	0.51663005
13	0x3edcc845	0.43121544
14	0xbed3a37d	-0.4133567
15	0xbe2522ec	-0.16126603
16	0x3d85d75f	0.065352194
17	0xbdf6b173	-0.120455645
18	0xbea199e6	-0.31562728
19	0xbd3a686b	-0.045509737
20	0xbdb816dd	-0.08988736
21	0xbd145ced	-0.036221433
22	0x3c4092a0	0.011753708
23	0x3e988fe9	0.29797295
24	0x3e0a0bec	0.1348111
25	0xbec33cf0	-0.3813243
26	0x3cab6213	0.020920789
27	0xbd4cd751	-0.05001003
28	0xbe08e863	-0.13369898
29	0x3e32c9cf	0.17459796
30	0x3e161fc7	0.1466056
31	0xbf0db4e1	-0.55354124
32	0xbe42b52b	-0.19014423
33	0x3f02ee5f	0.51144975
34	0xbde415c5	-0.11136965
35	0x3eece13d	0.46265593
36	0xbe370a70	-0.17875075
37	0x3ec40429	0.38284424
38	0xbe87f386	-0.2655298
39	0x3e76f3f1	0.24116494
40	0x3d2d849d	0.042362798
41	0x3ee4d07f	0.4469032
42	0x3edd57d3	0.43231067
43	0xbeb878fd	-0.36029807
44	0x3e2424e3	0.16029696
45	0x3f022159	0.50832134
46	0x3eb1db3f	0.34737584
47	0x3e6e711f	0.2328534
48	0x3e54b212	0.20771053
49	0xbe8c6416	-0.2742011
50	0x3e78a02d	0.24279852
51	0xbeb290dc	-0.34876144
52	0x3d403575	0.04692598
53	0x3de579a4	0.11204842
54	0x3e812e2d	0.25230542
55	0x3eacea66	0.33772582
56	0x3e0fc058	0.14038217
57	0xbee9287a	-0.45538694
58	0x3ebdb50e	0.37052196
59	0xbd085800	-0.03328705
60	0x3ebc5051	0.36780027
61	0x3f1b9690	0.60776615
62	0x3d376e72	0.044783063
63	0xbecef195	-0.40418687
64	0xbe724b20	-0.2366147
65	0xbe5534cf	-0.20820926
66	0xbe7c4d58	-0.2463888
67	0x3e61be11	0.22045161
68	0xbec6ca53	-0.38826236
69	0x3da54da9	0.08071453
70	0xbee7d07d	-0.4527625
71	0x3e9c7b6e	0.3056292
72	0x3e12f1b4	0.14350015
73	0x3e79bc21	0.24388172
74	0x3e9efe33	0.31053314
75	0x3f0477d8	0.5174537
76	0xbec4db95	-0.38448778
77	0x3d899375	0.06717578
78	0x3eb49f2b	0.35277686
79	0xbe9c66c8	-0.30547166
80	0x3e6f3149	0.23358645
81	0x3e8638ce	0.26215214
82	0xbbcc5b16	-0.006236444
83	0x3dbc08c6	0.09181361
84	0x3f06ad02	0.5260774
85	0x3eca86f6	0.39556092
86	0x3f0733eb	0.52813596
87	0xbf4a8dc0	-0.79122543
88	0xbeaf7780	-0.3427086
89	0x3e383736	0.17989811
90	0xbf1907e6	-0.5977768
91	0x3ee3f623	0.44523725
92	0x3e874571	0.26420167
93	0x3eaf20c5	0.3420469
94	0x3e497751	0.19674422
95	0xbdcb23f2	-0.099189654
96	0x3ec900cc	0.3925842
97	0x3e9deb3e	0.30843538
98	0xbecd11b9	-0.40052584
99	0x3eecbd91	0.46238378
100	0x3e2fbd25	0.17161997
101	0x3e01fb6e	0.12693569
102	0x3ed6e812	0.4197393
103	0x3e8b30cf	0.27185676
104	0xbec4810e	-0.3837971
105	0xbd54591c	-0.051842794
106	0x3e2c8370	0.16847014
107	0x3e59d7b1	0.21273686
108	0xbe9d15a5	-0.30680576
109	0xbf03db4f	-0.51506513
110	0xbed7dc31	-0.4216018
111	0xbd8a6791	-0.06758035
112	0xbe5c1bad	-0.21494932
113	0xbe52e154	-0.20593768
114	0xbecca953	-0.39972934
115	0x3f0de12b	0.55421704
116	0xbf040a50	-0.51578236
117	0x3ea43602	0.32072455
118	0x3eb23de0	0.34812832
119	0x3e9d22ec	0.30690706
120	0x3e8d7510	0.27628374
121	0x3eb9d272	0.3629337
122	0xbeb77d5c	-0.3583783
123	0x3e3615d2	0.17781761
124	0xbecc7a6a	-0.39937145
125	0xbe7beb66	-0.24601516
126	0x3f1f6212	0.6225902
127	0xbe780d85	-0.24223907
128	0xbe0cb8e0	-0.13742399
129	0x3def664b	0.11689433
130	0xbee49e5b	-0.44652066
131	0xbe09735e	-0.13422915
132	0x3d424ebc	0.04743837
133	0xbded7dc7	-0.11596256
134	0x3c20bf89	0.009811291
135	0xbe4bb5e2	-0.19893602
136	0xbe86f37c	-0.2635764
137	0xbed82a4e	-0.42219776
138	0xbe7a3889	-0.24435629
139	0x3e0bfa52	0.13669708
140	0x3e192e00	0.14958954
141	0x3d868a49	0.065693446
142	0xbed8a3f5	-0.4231259
143	0xbc9e0797	-0.019290728
144	0x3e511a0b	0.20420091
145	0xbd0dae57	-0.03459009
146	0xbeb5f7aa	-0.35540515
147	0x3e4b4ce3	0.19853549
148	0xbe2dfc09	-0.16990675
149	0x3e3970d8	0.18109453
150	0x3e8b88f6	0.2725293
151	0xbdc87f47	-0.09789901
152	0x3e80283f	0.25030705
153	0x3d8e9a80	0.06963062
154	0x3d1d220b	0.038362544
155	0x3e13e986	0.14444551
156	0xbe8d104b	-0.27551493
157	0xbe091ef1	-0.1339071
158	0x3e75be09	0.23998274
159	0xbea38975	-0.3194081
160	0xbd9b3b67	-0.075796895
161	0x3ef0f671	0.4706302
162	0xbca48685	-0.020083675
163	0x3dd70c9e	0.105004534
164	0x3e83121f	0.25599763
165	0xbe203158	-0.15643823
166	0xbe98c92e	-0.29840988
167	0x3ec6cbf7	0.38827488
168	0x3e335c4f	0.17515682
169	0x3e3d0496	0.1845878
170	0x3d33a490	0.04385811
171	0xbe3998fd	-0.18124767
172	0xbe373ea5	-0.1789499
173	0x3e4d1147	0.20026122
174	0x3e9865a8	0.29765058
175	0x3e3066ec	0.17226762
176	0x3e41d813	0.18930082
177	0x3e427c5b	0.1899275
178	0x3e6d6ec7	0.2318679
179	0x3d338544	0.043828264
180	0x3e8bf7ba	0.27337438
181	0x3e4dfe12	0.20116451
182	0x3e717503	0.23579793
183	0xbe607db3	-0.2192295
184	0x3d947f74	0.07250872
185	0xbea71201	-0.32630923
186	0x3c603736	0.013685038
187	0xbe4b7ab0	-0.1987102
188	0x3e8e7f37	0.27831432
189	0x3dbdeed0	0.092740655
190	0x3e71c184	0.23608977
191	0xbe72e383	-0.23719601
192	0x3e2e3aa9	0.17014565
193	0x3dfcd6b4	0.12345639
194	0xbd44a713	-0.048010897
195	0x3eee2fb4	0.4652077
196	0xbdd974c4	-0.106179744
197	0x3e99f2e7	0.30068132
198	0xbcc3f1b8	-0.023918971
199	0xbd231f6b	-0.039824884
200	0x3da14536	0.07874529
201	0xbcf0bc08	-0.029386535
202	0x3d990d17	0.074732
203	0xbe5d65cc	-0.21620864
204	0x3b1899dd	0.002328507
205	0xbede11a5	-0.43372837
206	0x3e95ad71	0.29233888
207	0xbdf6e360	-0.12055087
208	0x3dc3bd2c	0.09557566
209	0x3ebab8e0	0.36469173
210	0x3db4e046	0.08831839
211	0x3d69b429	0.05705658
212	0x3e840b4f	0.25789878
213	0x3dc7308c	0.097260565
214	0x3e2e33b1	0.17011906
215	0xbd6437bb	-0.05571721
216	0x3debdb0f	0.115163915
217	0x3c7953cf	0.015217735
218	0xbba3c524	-0.004997866
219	0x3efdbff6	0.49560517
220	0xbc452747	-0.01203329
221	0x3c11f1a7	0.008907712
222	0x3e8e426c	0.2778505
223	0x3d714db0	0.05891198
224	0x3eba983d	0.36444274
225	0x3e58b4b9	0.2116269
226	0x3da24f52	0.079252854
227	0x3e54cd18	0.20781362
228	0xbe0a6ef2	-0.13518885
229	0x3d8f3db3	0.0699419
230	0x3e28abd9	0.16471805
231	0xbde74894	-0.1129314
232	0xbd73b3b7	-0.05949756
233	0x3d5eea87	0.05442288
234	0xbd57b747	-0.05266502
235	0x3e961663	0.29313955
236	0xbdb7767d	-0.08958147
237	0xbe521276	-0.20514855
238	0xbe2a32a8	-0.16620886
239	0x3e0c071e	0.1367459
240	0xbe83c39e	-0.25735182
241	0xbba4ed2e	-0.005033157
242	0xbee3ee58	-0.4451778
243	0x3f01e749	0.5074354
244	0x3d445bc3	0.047939073
245	0xbd70a0c6	-0.058747075
246	0x3c610ad6	0.013735494
247	0xbb6e300f	-0.0036344563
248	0x3e050739	0.12991036
249	0xbd9c001f	-0.076172106
250	0x3d2e0cdf	0.042492744
251	0x3eaea6de	0.34111685
252	0x3c96d299	0.018410968
253	0x3d8ef84b	0.06980952
254	0x3e692734	0.22768861
255	0xbe803622	-0.250413

fc.bias f4 [44]
0	0xbea4275e	-0.32061285
1	0xbe1642a7	-0.14673863
2	0xbef0bf80	-0.47021103
3	0x3ca86ad6	0.020558756
4	0x3d1d4a08	0.03840068
5	0x3b7ec03c	0.0038871905
6	0xbdd2e652	-0.10297836
7	0xbc51afcd	-0.012798262
8	0x3d94f94d	0.07274113
9	0x3daf3524	0.08555058
10	0x3c02a1d5	0.007973154
11	0x3df59474	0.11991206
12	0x3d1c3616	0.038137518
13	0x3d8be4d6	0.06830756
14	0x3ca474ab	0.020075163
15	0x3d5327c4	0.051551595
16	0x3d1bafdd	0.038009513
17	0x3dc97e22	0.09838511
18	0x3de65015	0.11245743
19	0xbdad2c66	-0.08455734
20	0x3d6b213b	0.057404738
21	0xbdbd5606	-0.09244923
22	0x3daeb121	0.085298784
23	0xbd902811	-0.07038892
24	0xbca7f4bd	-0.020502442
25	0xbd03c6c5	-0.032171983
26	0x3d9ca2ae	0.07648216
27	0x3d61518b	0.055009406
28	0xbe1e8278	-0.15479457
29	0x3d6d3d00	0.057919502
30	0xbe2f7768	-0.17135394
31	0xbe9e4471	-0.30911592
32	0xbd647625	-0.055776734
33	0xbd7f45cf	-0.062322434
34	0xbd7e42d3	-0.062075447
35	0x3c65c6fb	0.014024491
36	0xbeb8aae3	-0.36067876
37	0xbefefe9c	-0.49803627
38	0xbe418dca	-0.18901744
39	0xbeba9847	-0.36444303
40	0xbe1cfdc6	-0.15331182
41	0xbe82133d	-0.25405303
42	0xbe42370d	-0.18966313
43	0xbe7eb44a	-0.24873462
